checkpoints/1dac_ProPINN_point.pt (torch, 70123 bytes, 16 tensors)

linear_emb.0.weight f4 [8, 2]
00000000: 5e30 49be bf4e 9cbc aa78 06bf 9d04 db3e
00000010: 7872 d53f 32dc 17bd dbe4 debd 382f f93e
00000020: 43ed 4ebf 5acd be3e 0adf 64bf 9c70 0bbf
00000030: fbff ad3c 5c05 4a3f 168f 85bf 4001 63be
-0.19647357 -0.019080518 -0.5252787 0.42776957 1.6675558 -0.03707523 -0.108834945 0.48668838
-0.8083078 0.37266046 -0.8940283 -0.54468703 0.021240225 0.7891443 -1.0434291 -0.22168446

linear_emb.0.bias f4 [8]
00000000: 6f7a 913d af2e e4be a8bf b13d 958f a53c
00000010: 58b3 933c 1037 843d b6c8 c0bc d971 203d
0.071034305 -0.44566867 0.08679134 0.020210067 0.018029854 0.06455815 -0.023533206 0.039171074

linear_emb.2.weight f4 [32, 8]
00000000: 06f8 b33e 4ec1 9a3e 4b6f 04bd 2866 0fbe
00000010: 100b c3bd 0435 7fbd 3264 343e 1734 1d3e
00000020: 5d59 84be 5927 36bc 3160 bcbe 7b89 943d
00000030: b7a5 e73d 8fbf 223d a113 2cbd 432e e03e
00000040: 77d0 c83e 460a 61be 360a 8d3e d5e3 7abe
00000050: 0f33 963e 5314 643e 9e23 ca3e 8278 883e
00000060: 5b38 cbbd 04e4 f9bd 8606 94be 3be9 6e3e
00000070: b6e4 24be 2954 fabd 8e0c 41be 870c b63e
00000080: 78df 90be 2f9e 6b3e ddc8 8fbe 0ade 613e
00000090: 07f3 203e fed2 d7be ef53 8ebe 3cd0 acbe
000000a0: 2cc5 3e3e 6664 89be ef5e ec3e c4e1 8ebe
000000b0: 5f03 97be 5c3c a2be 3468 943e 90f1 9a3d
000000c0: 445b d6be 368c ddbe 91b9 d1be 3674 3c3d
000000d0: b524 c0be 4d18 08bf 17d7 e03d 5c59 fdbe
000000e0: 8716 9b3d f8b3 1f3e 6464 e7bd 2c96 a53e
000000f0: 24ed d53c e86d 273e 72d2 583e df74 c13e
00000100: 6c05 9cbe 7bd4 83bd 39be 19be 9de3 f03d
00000110: c501 b03e 7642 2cbe fdfa b1be 4e88 383e
00000120: c173 b83d b7fd 87be 8641 f4be 4dd9 f43d
00000130: fd28 dcbe 2cd4 4ebe ab8a d83e f79a babe
00000140: f21f 83be 73ca bc3e 2273 383e e8d9 70be
00000150: 390b f3bd f203 ebbd fa62 953e 4406 3abe
00000160: 18f6 ad3e 5445 393e 8aa1 283e 3f73 f03c
00000170: cd32 b83e 66cb 953e 4ecc 7fbe d9e8 94bc
00000180: 53b9 85bd 7e15 893d 70e2 8e3d c736 903e
00000190: 7c14 1b3e 3109 993d 8313 f23d 6cce a73d
000001a0: d87e ae3e e1be c13e 6e1a d93c b9a9 c53d
000001b0: 5d9f 8dbd e958 18be 1770 2fbe 8d2e 733e
000001c0: dab6 043e 3be2 193e d8b6 a7be 6cf5 59be
000001d0: f29b 4a3e ff3b b6be 3fa6 30be ea17 723e
000001e0: 8788 413e fbe1 7f3e cc31 393e c9c7 a1be
000001f0: 02f2 d63e 45ed 57bc 74cb e4bd 77ff bc3e
00000200: 3193 553d 1c25 44be b9b9 2abd 7222 73be
00000210: e4a1 99be 59d7 143e 8b24 6b3e 5fd2 e63d
00000220: 3d78 4cbe 08a8 49be 6f4b 903e 0ede 06be
00000230: 6f56 6d3d a22e 31be 5c75 a9be 051d 3a3d
00000240: 24e4 a53c c9a3 47be ef86 313e 58a5 e4bd
00000250: 491a 633e 081a 0dbd 9692 88bd e219 b4be
00000260: 7e90 ddbd 5919 903e 8f82 583d 1bdf 94be
00000270: 517c 8abe c65a 723e f3c1 503e 0110 803e
00000280: 8de5 cdbd 157f f73c e036 b3be d022 93be
00000290: c57b 103e 766a b43e 3b53 1f3e 8225 69be
000002a0: c62d 6d3e a240 8ebd 47d3 7ebe 2f2f afbc
000002b0: 301d b13e 8925 cdbc 890b 313d ab7a 6ebe
000002c0: 676d c5be a81f f03d 4dcb a43e 281d 8ebc
000002d0: 1ef0 bc3e 534f 3b3e 7b5e a0be c736 26be
000002e0: f485 3f3e 01ae 963e 7f5f 13bd 2525 26bd
000002f0: 5727 8c3e 9699 8c3e 1a9d 783e 610b 363e
00000300: af66 68be 5bb9 77be 30ad cd3d 2ae8 10bd
00000310: 9149 8dbe 318f 0b3e 2542 35be 5229 fe3d
00000320: 57f1 95be d74d e4bd 6c7b ac3e 9333 773b
00000330: 158b bb3e 34ab cc3d 6ef8 8bbe d21c e3be
00000340: d20a b0bd 86cc febd 7a82 a9bd a13a 343e
00000350: e810 a13d b6d6 adbe 68f3 84be a41d 0b3c
00000360: b214 fe3b ce73 90bd b12d 93be de45 a1be
00000370: 43b4 993e e76a 633e 7dcc e43c ccd9 563e
00000380: 181a 1b3e 624c e23e 8040 44be 14f0 dd3e
00000390: 37fd 563e 61a1 963e bd9c 10be b788 08bc
000003a0: 83c2 f73d c3b5 993e 8f62 383e 45f9 2cbe
000003b0: 6fc4 85be a2d0 f8bd fb07 0dbe 2746 c93e
000003c0: 42b5 683e be83 51be 3f6d 153f bf42 b1be
000003d0: 8f9d 4f3e 4565 393c e380 87be 16a9 2fbd
000003e0: eea7 473d 9ca2 2dbe 1d88 133e 3065 c9bd
000003f0: 50d5 fbba 1c0a 393e 68ed debe dafa ab3e
0.35150164 0.30225605 -0.0323327 -0.14003813 -0.095235944 -0.06230642 0.17616346 0.15351902
-0.2584943 -0.01111778 -0.36792138 0.07252785 0.113109045 0.039733466 -0.042010907 0.43785295
0.39221546 -0.21976575 0.27546853 -0.24500974 0.2933583 0.22273378 0.394803 0.2665444
-0.09922858 -0.12201694 -0.28911227 0.23331158 -0.16102871 -0.122230835 -0.18852445 0.35556433
-0.28295493 0.23009561 -0.28082934 0.22057357 0.15717708 -0.42153162 -0.2779841 -0.3375262
0.18629903 -0.2683441 0.4616618 -0.2790662 -0.2949476 -0.31686676 0.2898575 0.07565606
-0.41866505 -0.43271035 -0.40961888 0.046009265 -0.37528005 -0.5316208 0.10978525 -0.49482238
0.07572656 0.15595996 -0.11298445 0.32341135 0.026114054 0.1635052 0.21174029 0.37784478
-0.30472887 -0.06437012 -0.1501397 0.11762164 0.3437635 -0.16822228 -0.347618 0.18020746
0.09006453 -0.26560757 -0.4770624 0.11955509 -0.43000022 -0.20198125 0.42293295 -0.36446354
-0.2561031 0.36873206 0.1801267 -0.23520625 -0.11867375 -0.11475362 0.29177076 -0.18166453
0.33976817 0.18092853 0.16467872 0.029351829 0.35976258 0.29256743 -0.2498028 -0.018177437
-0.065294884 0.066935524 0.06976783 0.28166792 0.15144533 0.07472456 0.11820128 0.08193669
0.3408115 0.37840942 0.02650186 0.09651513 -0.06915162 -0.14877667 -0.17132603 0.23748226
0.12960377 0.15027706 -0.32756686 -0.21285027 0.19786051 -0.35592648 -0.17250918 0.23641935
0.18899737 0.24988548 0.18085402 -0.31597736 0.41981512 -0.013179128 -0.11171618 0.36913654
0.052142326 -0.19154781 -0.041681025 -0.23743609 -0.30006325 0.14535274 0.22963159 0.11270594
-0.19967742 -0.19693005 0.2818255 -0.13170645 0.057943758 -0.17302945 -0.3309735 0.04543783
0.020250387 -0.19496073 0.1733663 -0.11164349 0.22177996 -0.034448653 -0.06668584 -0.35175997
-0.10818575 0.2814434 0.052858885 -0.29076466 -0.2704797 0.2366744 0.20386486 0.2501221
-0.10053549 0.030211965 -0.35002804 -0.28737497 0.14109714 0.35237473 0.15559094 -0.22768214
0.23161992 -0.069459215 -0.24885283 -0.021384804 0.3459258 -0.025042312 0.04322389 -0.23288982
-0.3856003 0.11724788 0.32186356 -0.017347887 0.36901945 0.18291979 -0.31322083 -0.16231833
0.18703443 0.2942963 -0.035979744 -0.040562768 0.27373764 0.27460927 0.2427868 0.17777778
-0.2269542 -0.24191801 0.100427985 -0.03537766 -0.2759519 0.13628842 -0.17701013 0.12410225
-0.2928569 -0.11147659 0.33687913 0.003771995 0.3662955 0.09993592 -0.27337974 -0.44357926
-0.08595814 -0.124413535 -0.082768396 0.1760049 0.07864553 -0.33952874 -0.25966954 0.008490954
0.007753932 -0.07053338 -0.28745797 -0.31498617 0.3002034 0.22208749 0.027929539 0.2098152
0.15146673 0.441989 -0.1916523 0.43347228 0.20995031 0.29419997 -0.14122291 -0.008333377
0.12097647 0.30021486 0.18006347 -0.16891964 -0.2612643 -0.121491686 -0.13772576 0.39311334
0.22725394 -0.20460412 0.5836982 -0.34621236 0.20274948 0.011315648 -0.2646552 -0.042885862
0.048744135 -0.16956562 0.14407392 -0.09833753 -0.0019213352 0.18070263 -0.43540502 0.33589822

linear_emb.2.bias f4 [32]
00000000: 3524 cfbc 752b 08bc 5a8f 613d 20d3 e93c
00000010: f004 293c 4009 d43c 44c4 24bd 93ef 87bc
00000020: 1a25 9b3b dd48 8f3c b525 93bb baa3 4a3d
00000030: 1533 f7bc 80e9 e93c bacb be3c 4fbb f63b
00000040: 6bbb 4ebd 2346 2e3d 60de 72bb 10ab bbbc
00000050: f8f9 6a3d d0c7 603d d464 22bb dee6 a7bd
00000060: 9448 7ebc bb98 53bb c522 adb9 9a52 493d
00000070: 90b4 823d c710 d53c b4dd 203d e3c0 e8bc
-0.02528582 -0.008311142 0.05506835 0.028543055 0.010316119 0.025883317 -0.040226236 -0.01659373
0.0047346475 0.017490799 -0.004490579 0.049472548 -0.030175725 0.028553724 0.023290504 0.007529653
-0.050471704 0.042547356 -0.0037058815 -0.022908717 0.057367295 0.054878056 -0.0024779337 -0.08198331
-0.015520234 -0.003228708 -0.00033023037 0.04915104 0.06382096 0.026008977 0.039273933 -0.028412288

multiregion_mixer.0.weight f4 [8, 4]
00000000: 9c1d 21bf daa6 df3e 0b04 113f 8ae5 f93e
00000010: b082 f13d ffcb 9dbe 08e9 9ebe d64c aebc
00000020: 1b13 c4be d83e 8c3e 3214 3abf dd80 b23e
00000030: 4096 2abf 2dec d03e d603 39bf 577b 52bf
00000040: 3641 263f fac6 133f a5c0 fbbe 81d7 533e
00000050: bdb2 f8bd fbf6 aa3e 3c55 69be 5d88 c1be
00000060: f1af 84be 60fb 0abf 5cfd 0fbe bbc0 a2be
00000070: c064 913e b7b8 033f 3aa3 083f f685 e0be
-0.62935805 0.43681985 0.56646794 0.48807937 0.11792505 -0.308197 -0.31037164 -0.021276873
-0.38295826 0.27391696 -0.72687066 0.3486394 -0.66635513 0.40805188 -0.7227148 -0.8221945
0.64943254 0.5772549 -0.49170414 0.20687677 -0.121434666 0.33391556 -0.2278642 -0.3779935
-0.25915483 -0.5428982 -0.14061493 -0.31787667 0.2839718 0.5145373 0.53374064 -0.43852204

multiregion_mixer.0.bias f4 [8]
00000000: b530 51bc 781f 4d3c cbde 77bc 0626 8d3d
00000010: 47f7 bb3b efc9 3c3d 84e5 66bc caff babc
-0.01276796 0.01251971 -0.015128802 0.06892018 0.005736265 0.046091016 -0.014092807 -0.022827048

multiregion_mixer.2.weight f4 [1, 8]
00000000: 6ba4 133f 35dd 14bf 4ab6 f8be 4e3b 0c3f
00000010: 9951 e93e badb a53e 4907 abbe ff3a 3a3f
0.57672757 -0.58150035 -0.48576576 0.5477799 0.45570067 0.323942 -0.33403996 0.7274627

linear_out.0.weight f4 [64, 32]
00000000: 0c3f 5c3e ec1d 173e a6e2 84be 1ee6 0cbe
00000010: 561a 843e 18e2 40be 6f8c c9bc 4f90 173e
00000020: ce87 25bc 7100 debd 81ea 41be a2e8 323e
00000030: 6044 00be aa34 9dbb 2832 d0bd 4bbd a13d
00000040: 0409 213e 6094 04be 998d 303e e126 03be
00000050: bf10 89be f2a2 1ebe 945a bcbd d3e2 033d
00000060: 78d7 e63d 1927 babd af5c ad3d 5ead 2c3e
00000070: a632 6f3e 410c aabd 41de e1bd 5c4d 1cbe
00000080: 104c 85bd 247f 6c3e 4bcd 5bbd c130 2b3d
00000090: 8637 443d 0afa 65be bec7 edbd a48f 683d
000000a0: 9fa4 1c3e 389e 2c3e 657a 8abe 3aba 51be
000000b0: 70bc eb3b 5e08 7dbe 919c bc3d 2d56 1abe
000000c0: be96 85bc 62b2 d7bd 0be3 0fbe c1d8 71bd
000000d0: 0dc8 30be ddc5 67be 15ba 4abe 113e a23d
000000e0: 33f0 2c3d 3795 bebd 2696 f73c 5c97 1dbd
000000f0: eddb a5be 2003 5bbd cd53 9cbe da18 403e
00000100: 984e 24be 71f7 6b3e 49ce 8abe 4cfe d4bd
00000110: fdc3 a1be b740 173e 82e8 f4bc a8b0 903d
00000120: 665e 7ebe 3c8d 72be 52b7 74be 8c2d 643d
00000130: 3c5e d13d fb02 2f3c 764f 6cbe 43c0 2f3e
00000140: 5a06 27be 596a 583e a15a abbb a3ea 493e
00000150: 497f e73d b75e 8cbe ccef 0d3e 020e 07be
00000160: ac50 c3bc e1f8 18be 9e3c 16be 645f 6f3e
00000170: fdf9 a53d 0931 fcbd 04c3 523e b1ad 973e
00000180: 930d 21bd 1507 ddbd 8d72 d03d 2b82 acbb
00000190: 4d25 0bbe 3f16 d23d 9f9c 8f3d c245 e83d
000001a0: 809c 79bd 5407 1b3e 87e3 093e d317 9f3b
000001b0: de95 01be f652 d5bd def5 693d 674d b33d
000001c0: 8070 593e c64c 5d3e bb0e 39be 2139 1ebe
000001d0: 165f 01be 8030 2f3e 867c aebd 2d26 33bd
000001e0: f446 76bd cd64 12be d2c1 a7bd 5e90 473e
000001f0: 3760 0d3e 50cf 2b3e 4be9 cdbd 42ec 1dbe
00000200: d9d7 993e b127 343e d11e b63c a0eb 80be
00000210: 6bad 95bd 7aeb 063d 55d3 383c c3ba a23d
00000220: 068b 693d 5930 83bd bffd 53be 516c fbbd
00000230: 7451 993d 3b66 863b e1b0 983d 7ee3 ac3e
00000240: 6a46 43be a56e 123d f4bb f33d d339 6f3e
00000250: e961 6c3c 3c17 11be cdc1 7a3e 18d5 193e
00000260: 8a06 a0be a0c0 e33d ffae b63d f360 1ebd
00000270: da07 213e 3368 2b3e 97c2 1bbe 58a7 3dbe
00000280: 8798 6c3e 86eb 9a3d b094 f73c 4e7f 2d3e
00000290: 1a1b c3bd 5371 9dbe 7c8b 5e3e ffcc 1b3d
000002a0: 5d39 66be 2e9b 7fbe b422 303e 0ed3 bdbd
000002b0: c6cf ebbd 57b0 983d d999 6e3d 3a77 d0bd
000002c0: 3553 dd3d 5def 9b3d a2a8 143e f34d 3cbe
000002d0: da64 1ebe dd4a 063e 964c fe3c c6ca c2bd
000002e0: 69f1 113b 2602 5cbe 591a 443e b42e 073e
000002f0: a0dc 53be 8149 16be 7c67 1d3e bb36 36be
00000300: 4edf 203e 437b cabb bbd6 633c 08c1 e7bc
00000310: cb03 313e 0aa8 bfbd 3be9 92be be0d 223e
00000320: 9289 de3d fcd0 2d3e 0b7f fc3c cc66 253e
00000330: bb7b d83d 589b cbbd f6d8 2c3e 8548 033e
00000340: 751e e7bd 15e6 c43d 74f1 143d 5b5c fe3d
00000350: 9d7c 4bbe d2e2 d43b 59e2 f43d cc0b 02bd
00000360: 8c92 f5bc deb3 0f3e 606f a43d f253 94be
00000370: 9050 3cbd e369 313e 3778 a4be 163e 5ebb
00000380: 8f2d 16bd 11d1 123c ee2b 14be 82d9 1d3c
00000390: 1ec7 dc3c a3c5 10be c457 9e3e d158 b73c
000003a0: 2f61 3abe 3fa0 503e 885a 723c e998 3abe
000003b0: 039c 85be ce14 173e 0d73 8dbd f967 9cbe
000003c0: 3201 c1bd 7b7f 763d aa00 a53c e346 c7bc
000003d0: 12ad 643e 7cfa 72be ca9e 4b3d f596 77be
000003e0: 771e 823e b5ae 083d 70f1 483e d238 0e3d
000003f0: 2c05 25bd b3dd 6dbd e0d2 10be 7b67 123e
0.21508425 0.14757508 -0.2595417 -0.13759658 0.25801343 -0.18836248 -0.024603097 0.14801143
-0.010103179 -0.10839928 -0.18937112 0.17471555 -0.12526083 -0.004797538 -0.101658165 0.07897433
0.15726095 -0.12947226 0.17241515 -0.128078 -0.2677059 -0.15491846 -0.09196964 0.03219874
0.11271566 -0.090894885 0.084649436 0.1686301 0.23359165 -0.083031185 -0.1102872 -0.15263885
-0.065086484 0.23095375 -0.05366258 0.041794542 0.047904514 -0.22458664 -0.116103634 0.05677761
0.15297173 0.1685723 -0.27046505 -0.20481196 0.0071940944 -0.24710223 0.0920955 -0.15071936
-0.016307231 -0.10532071 -0.14051454 -0.059044603 -0.17263813 -0.22634073 -0.19797547 0.079219945
0.04222126 -0.09305804 0.030222964 -0.038474426 -0.32394353 -0.053469777 -0.30532685 0.1875948
-0.16045606 0.2304361 -0.27110508 -0.10400066 -0.3159484 0.1477078 -0.029896025 0.070649445
-0.24840698 -0.23686689 -0.23898056 0.0557075 0.10223052 0.010681863 -0.23077187 0.17163186
-0.16311017 0.21134318 -0.0052293097 0.19718413 0.113035746 -0.27416012 0.13861006 -0.13188937
-0.023842178 -0.1493869 -0.14671561 0.23376232 0.08104322 -0.1231404 0.20582205 0.29624704
-0.039319586 -0.107923664 0.10178099 -0.0052645407 -0.13588448 0.10258149 0.07012295 0.1134143
-0.060940266 0.15139514 0.13465701 0.004855135 -0.12654826 -0.10416214 0.057119243 0.08754998
0.21234322 0.21611318 -0.18072025 -0.1545148 -0.12633929 0.17108345 -0.08519845 -0.04373758
-0.06012626 -0.14296265 -0.08191265 0.19488665 0.13806234 0.16778302 -0.10054263 -0.15422156
0.3004749 0.17593266 0.022231491 -0.25179768 -0.073084675 0.03293941 0.011280854 0.07945778
0.05701735 -0.06405706 -0.20702265 -0.12276519 0.07486239 0.0041015423 0.07455612 0.33767313
-0.1906983 0.03575005 0.119010836 0.23361902 0.0144276405 -0.1416902 0.24487992 0.15022695
-0.3125499 0.11120725 0.089200966 -0.038666677 0.15725651 0.16738968 -0.15210949 -0.18520868
0.2310506 0.07564454 0.030222267 0.16943094 -0.095266536 -0.30750522 0.21732897 0.038037296
-0.2248282 -0.2496154 0.17200738 -0.09268771 -0.11514239 0.07455509 0.05825219 -0.10178991
0.10806886 0.07614014 0.14517453 -0.1838911 -0.1546816 0.13114496 0.031042378 -0.09511332
0.0022269136 -0.21485195 0.19150676 0.1320141 -0.2068963 -0.14676477 0.15371507 -0.17794316
0.15710184 -0.0061792447 0.013906176 -0.028290287 0.17286603 -0.09358223 -0.28693566 0.15825555
0.10866083 0.16974252 0.030822298 0.16152495 0.10570475 -0.09941739 0.16879639 0.12820633
-0.11285106 0.09614197 0.03636308 0.12419959 -0.19871755 0.0064967657 0.11957235 -0.03174953
-0.029977106 0.14033458 0.080290556 -0.28970295 -0.045975268 0.17325549 -0.32122967 -0.0033911518
-0.03666454 0.008960978 -0.14469883 0.009634377 0.026950415 -0.14137892 0.30926335 0.022381218
-0.18201135 0.20373629 0.014792092 -0.18222393 -0.2609559 0.1475403 -0.0690671 -0.30548075
-0.09424056 0.06018017 0.020141918 -0.024325794 0.22331646 -0.23728365 0.04971198 -0.2417868
0.25413868 0.03336974 0.19623351 0.034722157 -0.040288135 -0.058072757 -0.14142942 0.14297287

linear_out.0.bias f4 [64]
00000000: 1c07 343b 61b9 38bd 27fd db3a 0bfc 70bc
00000010: db32 0d3d 9455 c63b 8cd7 0dbd 8386 0dbd
00000020: 3a99 ea3c 2dd6 993c 6a78 053d 601c ac3c
00000030: 0362 acbc 2cf3 913c c7dc 64bb 05fd 093d
00000040: 5ff8 05b9 bf06 043d c494 273c 6e13 053c
00000050: e2cc 9f3c 4611 7b3d e135 a63c cd07 53bc
00000060: 0af3 523c 22b9 263c 184e f33b 8fd0 6bbb
00000070: e36e 48bc 33d6 a43c 7744 85bc 10c4 b6bb
00000080: 1718 9abc 0fd9 1d3d 6311 6ebd a09b 143d
00000090: 4691 a53b a62b 8c3c 2e3e f9bb 794e 5f3d
000000a0: d4da 84bc e2da 0b3d 5f9d 06bc 6317 d13c
000000b0: c218 27bc 728f 63bd 1941 c33c 8ea8 7f3c
000000c0: 44f8 a7bb 77df cd3c 9c66 e63c 490f adbb
000000d0: a63e cd3c ec9d 91bc 1a6e b33c 967c 063c
000000e0: da06 cbbc 94e8 053d 0999 d43c c6cd bc3c
000000f0: 6e31 aaba def2 3ebc 3c33 803c 6257 e63b
0.0027470058 -0.045098666 0.0016783819 -0.014708529 0.034472328 0.006052682 -0.03462939 -0.03455211
0.028637517 0.018778885 0.03258554 0.021009624 -0.02104283 0.017816149 -0.0034921633 0.033688564
-0.00012776394 0.032232996 0.01022834 0.008122308 0.019506875 0.06129577 0.020289363 -0.012880278
0.012875328 0.010175975 0.007425081 -0.0035982465 -0.012233469 0.02012167 -0.016267998 -0.0055775717
-0.018810315 0.03853708 -0.05812205 0.036281228 0.0050527183 0.017110657 -0.0076062893 0.054518197
-0.016217627 0.03414429 -0.008216231 0.025523847 -0.010198774 -0.055556722 0.023834752 0.015604151
-0.005126031 0.02513097 0.0281251 -0.005281363 0.025054287 -0.017775498 0.021903086 0.008208415
-0.02478354 0.032692507 0.02595188 0.02304734 -0.0012984702 -0.011654584 0.01564943 0.00702946

linear_out.2.weight f4 [64, 64]
00000000: 9801 95b9 8a48 373e 7417 483e ac8e a8bd
00000010: b4b7 61bd 264c 973d 9704 1c3e e6f7 0abd
00000020: b9cd b9bd 6d09 1a3e 14f6 6fbc 9f62 a13d
00000030: ff98 563d 664c 1cbb 66c6 1abe 73e8 d33d
00000040: 2cf5 20be 273d 0cbe 5d00 b03d 3a5b 72be
00000050: dc60 483e 5eb4 2b3e a10a 3e3e f67b e5bd
00000060: b0b4 42be 345c 8f3c 3eec 4f3e e7bc 59be
00000070: 6622 cc3d 1acb b13d 2636 583e 0be9 e8bd
00000080: 66a8 1dbe 4370 6a3e 5c9d 3ebe 82c5 2c3e
00000090: 57a1 eb3d b10f 7cbd 4679 c43d 1213 3bbd
000000a0: 6a60 243e c6b8 893d bd20 debd dc8f 20be
000000b0: d080 e2bc d0ba b13c 662a 5b3e 63f6 40bd
000000c0: 814d e4bd bede 623d 89ab fc3d 9ab6 3f3e
000000d0: a544 5d3d 27ea e8bd c3cb 9c3d 1f68 a63d
000000e0: abc7 abbd e9a9 513e 93f6 d53d 623a e8bd
000000f0: 9e18 2f3e 3c9f 2b3e a647 62bc 88f3 30be
00000100: 8fe2 083e 8606 0d3e 8907 e8bd 479e 84be
00000110: f0c4 5cbe 9e94 273e 821f 273e ea51 c1bc
00000120: d11b 78bd a2a9 a23d 4010 18be 604b 73be
00000130: 2136 b4bd e7e9 75be ff5e 0fbe affa 053e
00000140: cd8a 5b3e 951a 82bd 0d9c 363d 7629 90bd
00000150: d2ed cb3d e785 a43c 2482 583e 2915 c73d
00000160: 236d a93d ce12 e03d b6a8 ccbd 6a1f 4b3e
00000170: c5af 8fbd 38f9 3dbe 725e a23c 9bd8 7abd
00000180: 7a1d 65be 7b67 37be 42c9 293e 7c6c 47be
00000190: 2b24 5dbe 90dd ae3d 7068 963d b9cf 803d
000001a0: cdf2 6fbd 7c72 0abe a880 3cbe 4bbc 6bbe
000001b0: cd22 8a3d 1857 2a3e 08a1 7fbe 9d97 97bd
000001c0: a7b1 0fbe f1af 163d 1513 a9bd 468a 173e
000001d0: e30d b7bd 0a0a 773e 7533 f63c 8f75 803d
000001e0: c24b b73d 8537 6bbe e050 3dbd 6ff1 5ebe
000001f0: 705f babd 4602 353e e797 5abe 83ea 4c3e
00000200: e70a 69bd 713b 233e 5ebf 183e 5641 4bbe
00000210: 5950 c83d 84e8 2f3e 46cf b5bc d454 693e
00000220: abab 21bd b78a fd3d 3de4 3d3e ae23 103e
00000230: 81ad 10bc 994c 203d 3d62 563e 2274 16be
00000240: a1ba ddbd 60cf af3d fb62 71be 168a 383e
00000250: a5ee 9b3c 2b15 383e 225a 09bd 348b ce3d
00000260: 5083 1abe 8516 2e3c 89d2 20be c540 353e
00000270: d38d 543e 1311 503d 18bf a63c 1d2c 3ebe
00000280: dd77 5a3e 6d48 3a3d 796b 3dbe cf09 193c
00000290: 5c0f 95bc 7f8b 2e3e 8445 283e 5f85 86be
000002a0: 6ce4 993e 2d73 293d 1045 f43d 73b5 76be
000002b0: a930 013d c0e5 093e beb6 57be 2147 77be
000002c0: 48d4 0d3e dd17 853d 9700 0cbe 26da 8b3d
000002d0: 941c d03d 7fd1 253e 13a5 43be ed4b d73d
000002e0: 6d11 e33d 8629 1d3e 4e70 d2bd 62fe 4fbe
000002f0: 2282 353e 71cc ab3c b69b 373e 8b20 2cbd
00000300: ea4d 2e3e c2d3 f8bd 4672 4fbe 5be7 713c
00000310: 4f5c 33be 84dd b33d eb9e 8fbc 0543 b83c
00000320: e001 9abd 4028 babd f4d3 1d3d 8279 343e
00000330: 713e 723e e5c2 493e 442e df3d 7cd4 2b3d
00000340: a1ec 11bd e9da 40be 7eec 043c fa5a b53d
00000350: 00b4 333d be8f 3b3e 8bd7 593d ce45 3b3e
00000360: 0a71 e43d 2e4e c03c 0ba4 1dbe 4a1e dfbd
00000370: 45e4 653d 3c95 52bc e088 e23d 0e19 44be
00000380: b3eb 533e bd8e e4bd 5984 47be ee84 a63c
00000390: d981 14be 37d9 77bd 1509 24be 1627 d73c
000003a0: e23f 27be 009c 663e 5b5b ddbc 348d 083e
000003b0: 9c2d 273e 708d 0fbe f1f9 683d 3d54 bcbd
000003c0: 1f03 ffbd 1b9c 39be 9ce9 303e 1e03 bd3d
000003d0: 2eb6 193e 2bf5 cbbd 9faa 563e de48 28bc
000003e0: dd3c 3e3e 8ee7 4c3e 8cc8 7fbd 218c 343e
000003f0: a3c3 4f3e db87 333e 7df7 1e3e 9393 09be
-0.00028420682 0.17898765 0.19540197 -0.082303375 -0.055106834 0.07387571 0.15236126 -0.03392782
-0.090724416 0.15042658 -0.014646072 0.078801386 0.052392002 -0.0023849248 -0.15114745 0.103470705
-0.15718526 -0.13695203 0.08593819 -0.23667613 0.19568199 0.16768023 0.18558742 -0.11205284
-0.1901424 0.01750002 0.20304963 -0.21263467 0.099674985 0.08681317 0.21114406 -0.113725744
-0.1539627 0.22894387 -0.18614715 0.16872218 0.115053825 -0.061538402 0.095934436 -0.045672484
0.16052404 0.06724696 -0.10846088 -0.15679878 -0.027649313 0.021695524 0.21402892 -0.047109973
-0.11147595 0.055388205 0.12337405 0.18722 0.054020543 -0.11372786 0.07656052 0.08125328
-0.08387693 0.20474972 0.10447421 -0.11339261 0.17099234 0.16759962 -0.013811028 -0.172804
0.13367675 0.1377202 -0.11329562 -0.25902006 -0.215595 0.16365287 0.16320613 -0.02359863
-0.060573403 0.07942511 -0.14849949 -0.23759222 -0.08799387 -0.24015008 -0.14001082 0.1308391
0.21439667 -0.06352726 0.044582415 -0.07039158 0.0995747 0.02008338 0.21143395 0.09720833
0.08272769 0.10941087 -0.099931166 0.19836202 -0.07015947 -0.185521 0.019820426 -0.061241727
-0.22374526 -0.17910568 0.1658068 -0.19474977 -0.21595828 0.085383534 0.073441386 0.0628962
-0.058581162 -0.13520235 -0.18408453 -0.23021047 0.06744919 0.16634786 -0.24963772 -0.07401965
-0.14032613 0.036788885 -0.08255593 0.14798841 -0.089381956 0.24124923 0.030053833 0.062724225
0.089499965 -0.22970398 -0.046219707 -0.21771787 -0.091002345 0.17676648 -0.21347009 0.20011334
-0.056895163 0.15940644 0.14916751 -0.19849142 0.0978095 0.17178541 -0.022193562 0.22786266
-0.039470356 0.123799734 0.18544097 0.1407611 -0.008830429 0.03913555 0.20935912 -0.14692739
-0.10826612 0.085844755 -0.23572914 0.18021426 0.019034693 0.17976825 -0.033533223 0.10085145
-0.15089154 0.010625486 -0.15705313 0.17700489 0.20757227 0.050797533 0.020354792 -0.18571515
0.21334787 0.045479227 -0.18498029 0.009340717 -0.0181958 0.17045401 0.16432768 -0.2627363
0.30057085 0.041369606 0.11927235 -0.24092655 0.031540547 0.13466549 -0.21065804 -0.24148227
0.1385051 0.06498692 -0.136721 0.06828718 0.10161701 0.16193198 -0.1910594 0.105125286
0.11087308 0.15347871 -0.10275327 -0.20311883 0.17725423 0.020971509 0.17930493 -0.042023223
0.1702191 -0.121497646 -0.20258436 0.014764632 -0.17515682 0.08782485 -0.017531833 0.022492895
-0.07519889 -0.09089708 0.038532212 0.17624477 0.23656632 0.19703253 0.10897496 0.041950688
-0.035626058 -0.18833508 0.008113025 0.08855243 0.043872833 0.18316552 0.053184073 0.18288347
0.11154373 0.023474779 -0.15394609 -0.10894449 0.056125898 -0.012852963 0.11061263 -0.19150183
0.20695381 -0.11160038 -0.1948408 0.020327058 -0.14502658 -0.060509887 -0.1601909 0.026263755
-0.16332963 0.22520447 -0.0270211 0.13335115 0.16325992 -0.14018798 0.056878988 -0.09195755
-0.12451767 -0.18125956 0.17276615 0.0922911 0.15010902 -0.099588715 0.20963524 -0.010271279
0.18577905 0.20010206 -0.062447116 0.1763158 0.20289473 0.17532293 0.15524097 -0.13435201

linear_out.2.bias f4 [64]
00000000: 3894 383d 599c b2bc 9e43 fc3b 3326 a73c
00000010: a711 6dbb 218f 703d 0bb7 fc3c 7608 a1ba
00000020: fea3 7c3d 1009 7d3d 5cf9 783c 2d16 163c
00000030: a1cf e4bb fc03 93bc 20c1 f43b e05a 23bc
00000040: b250 0b3c 91f4 bb3a 9fd9 5abb 2521 5f3c
00000050: 8917 ea3c 653b 0b3a ca6f 69bb e34e 8e3c
00000060: 7fcc 1fbc 0099 de3c 75e9 f53c 76f0 903c
00000070: cae8 2b3d 7094 b93d 45d1 9fba e02b 44bb
00000080: 3c56 7b3d 7e4f 0d3d 73ee 183d 20fe 86bc
00000090: 6962 cbbc 04f0 c33c 3bb7 223c 602e a33c
000000a0: 5561 13bd d6a5 9a3c 9079 8a3c 4f0d cb3a
000000b0: ec82 4eba b4e7 173a 846f b43c fe03 b13c
000000c0: 8cfa 773c da94 82bc d74f e73c 2a66 78bc
000000d0: 9ecb 143c b1fb d73a d9f6 953c 265d 903d
000000e0: 7ffd 29bc f953 0abd cbf9 613c 6be0 c3bb
000000f0: ea66 e83c 7012 043d fec5 c1bc 4052 17bb
0.045063227 -0.021803068 0.0076984903 0.020403957 -0.0036173852 0.05873025 0.030849 -0.0012285847
0.061679833 0.06177622 0.015196171 0.009160561 -0.006982759 -0.017946236 0.0074693114 -0.009970397
0.008503126 0.0014339854 -0.0033393872 0.013618742 0.028575676 0.00053112797 -0.003561961 0.0173716
-0.0097533455 0.027172565 0.030018548 0.017692786 0.04197005 0.09061515 -0.0012193104 -0.0029933378
0.061361536 0.034499638 0.037336778 -0.016478598 -0.024827199 0.02391816 0.009931381 0.019919574
-0.035981495 0.018877905 0.016903669 0.0015491637 -0.0007877785 0.00057947193 0.022025831 0.021608349
0.015135419 -0.015940119 0.028236313 -0.015161077 0.009081749 0.0016478208 0.018306183 0.07049017
-0.01037538 -0.03377149 0.013792465 -0.0059776804 0.028369386 0.032244146 -0.02365398 -0.0023089796

linear_out.4.weight f4 [64, 64]
00000000: 53a5 c43d 42a2 67be f4f4 103d d91f c7bd
00000010: 1ff3 b9bc 9789 1b3d 2b45 32be 9a81 03be
00000020: dc9a 1e3e 0ce1 1bbe 9357 cabc acd5 43be
00000030: d48e 15be 7dc6 433e 09eb f6bd c0b0 76bd
00000040: e467 12be f145 2ebe 7adb eabd 1bfd 00be
00000050: 86ca 2e3e fa15 613e f7e0 e3bd ba3a 043b
00000060: e313 33be 30a2 16bd 93f8 c0bd 115d f23d
00000070: e82f 363e 7d1e 3e3e fefc 1a3c bb48 c1bd
00000080: 0359 20be ec17 383d 1ef2 1a3e e0ea b1bd
00000090: 614a 2d3e da0b 373c beaa bd3d b036 b73c
000000a0: 25ef 073e dae7 ac3d c6a9 183d b204 7f3e
000000b0: abb3 e1bd a231 4b3e 49dd 533e ce84 433e
000000c0: 990b 0a3e 8f08 2bbe 0e19 333e a430 d8bd
000000d0: 4fcd b7bd 8f95 1bbe 41d8 413e cea8 84ba
000000e0: b619 2cbe a372 ccbb 8fb7 133e afa5 3b3d
000000f0: 6b74 a43c f1da ccbd 8ee1 413d 2448 afbd
00000100: 1c00 313e e7b5 383e 962b 3e3e c9ae cc3d
00000110: 1633 fdbd ceaa 2ebe 54c6 383e ee30 0a3e
00000120: 2459 1fbe 522b 483e 5295 ff3d 908d 62be
00000130: 9d9c 1cbe 1b84 68bc 0521 26be ab8c f43d
00000140: 966f a8bd aff5 123e 58e3 613e e3d2 58be
00000150: bb49 08be 1705 a6bd b84b 0e3e 1597 a63c
00000160: 1fb4 cfbd 2bcf 173e 7654 413e 0a8d 93bd
00000170: c375 13be 00a9 013d 3dd3 503e c426 b93d
00000180: 64fa 0d3e 2e2a 05be 1ae5 323e 979b 943d
00000190: 0114 a63d a44a 203e 1607 e13d eb69 b13d
000001a0: f950 ed3b bd89 51be 64cc c73d 9089 1d3e
000001b0: 5ac4 cbbd 8940 36be 3595 c8bd 2a67 1a3e
000001c0: 7ec9 6dbe d7a6 323c 74ea 16be 41a2 073e
000001d0: 404e c2bd 4cd4 18be 5476 f23d 6ef5 4c3e
000001e0: c99e 2d3e ffb3 21bd 909b 8cbd ca13 3a3e
000001f0: b2f6 773d de8b 4e3d 6b45 1cbe 3d57 613d
00000200: c06f b1bd 3430 4dbe 8601 6ebb 25aa 06be
00000210: 0a4c dfbd 71fb bc3d e483 143e cb85 473d
00000220: 4d6b 083e df98 083e bdc2 b63d 0ea4 d5bd
00000230: 99b0 2b3e 4d8d c9bb 78c8 d2bb e960 b03d
00000240: 2f73 343d fe78 123e 60bb 15be 1203 3bbd
00000250: dce0 b1bd d603 fb3d 51c9 5d3c 59ae 943d
00000260: 2468 8f3c ea1e 97bd 015e 05bb 3591 333e
00000270: 570e 38bd efb1 e03d fc95 2c3e 7dcc af3c
00000280: 06f4 33be 9c2d 0f3e cba6 193e bfda be3b
00000290: 32c0 29be 8ff5 483d db0d 21bc c9b8 fbbd
000002a0: 0141 0dbe febe 17be 86bd e93d e707 4bbe
000002b0: 8e9c 03be 9db0 65be c67a cebb 93e3 203e
000002c0: fd59 973d 288f d1bd b5a5 af3d 64a5 babc
000002d0: a332 44bc 035b f63d 33d9 56be ccf0 35bd
000002e0: 3858 36be fca5 81be 48e2 9dbd 31a1 8cbd
000002f0: 8139 99bd 697b aabc 30a8 3bb9 33bd ddbd
00000300: 03fa 903d 5f96 023d 2937 5cbd d424 3ebe
00000310: 5e34 a9bd b603 2fbe d868 273e 6435 843d
00000320: fc56 573e 8f9b e03c 2d34 26be 3e62 f33d
00000330: cf45 babd 9484 5cbd 7d6d 013e 32e4 2f3e
00000340: 7a8f aa3d 1822 14be 9338 603e 4666 ec3d
00000350: 371b 0fbe 9d3b 183e 10a4 b1bd 3338 bebd
00000360: abab 25bc e6ed 54be 083b 07be 15ca 893e
00000370: 78dd cdbd 316e 41be 8020 58bd 88de 24be
00000380: 7ffc febd edc1 a4bc ad8f 483d a564 073e
00000390: fc33 0fbe e358 b239 a0fb 853d 11fb 55be
000003a0: 9f07 1cbd 2db6 203d 18f4 5e3e 23a1 8d3e
000003b0: f998 933c 170c 273e c59d afbd 11ac 233e
000003c0: 1789 bebc 1929 c8bd 8b39 5a3e 5f09 543e
000003d0: fcdc b5bd ba47 0ebe f5ed 173e 16a2 563e
000003e0: 7309 46be bdf4 f2bd 035e e43d 3fb2 de3d
000003f0: 33dd 6d3e 6a19 ac3d acd0 c5bc 92d6 38bd
0.096018456 -0.2262049 0.035389856 -0.09722871 -0.022698937 0.037973013 -0.17409198 -0.12842408
0.15488762 -0.15222567 -0.024699962 -0.19124478 -0.14605266 0.19118686 -0.12056548 -0.060227156
-0.14297444 -0.17018868 -0.11467643 -0.12596552 0.17069444 0.2198104 -0.11126893 0.0020176605
-0.17488055 -0.036775768 -0.09422412 0.11834157 0.17791712 0.18566318 0.009459732 -0.094377
-0.15658955 0.04494469 0.15131423 -0.08687377 0.16922905 0.011172259 0.09261082 0.022364944
0.1327482 0.0844266 0.037271284 0.24904135 -0.11020597 0.19843152 0.20689882 0.1909363
0.13480987 -0.16702484 0.17490026 -0.105561525 -0.089747064 -0.15193771 0.1893015 -0.0010121108
-0.16806683 -0.0062392517 0.14425491 0.045812305 0.020075044 -0.10002697 0.047334246 -0.085586816
0.17285198 0.1803814 0.18571314 0.09994275 -0.123632595 -0.17057344 0.18044406 0.13495228
-0.15561348 0.19547775 0.124796525 -0.22124314 -0.15294118 -0.014191653 -0.16223533 0.11940893
-0.08224408 0.14351533 0.22059381 -0.21174197 -0.13309376 -0.081064396 0.13896072 0.020335713
-0.10141777 0.14825122 0.18879876 -0.072046354 -0.14400391 0.03165531 0.20393081 0.09040597
0.13865048 -0.13004372 0.17470208 0.07256239 0.08109284 0.15653473 0.1098768 0.086627804
0.0072423187 -0.20462699 0.09755781 0.15384507 -0.099495605 -0.17798056 -0.09794084 0.15078416
-0.23221394 0.0109040355 -0.14737874 0.13245489 -0.09487581 -0.14924735 0.118389755 0.20015499
0.16955103 -0.0394783 -0.06865609 0.18171611 0.060538 0.050426356 -0.15260856 0.055014838
-0.08663893 -0.2003792 -0.0036316826 -0.13150842 -0.10903175 0.09227646 0.14503437 0.04871158
0.13322182 0.13339566 0.08923862 -0.104316816 0.16766585 -0.0061508776 -0.006432589 0.08612234
0.04405516 0.14303967 -0.14622259 -0.045657225 -0.08685467 0.12256591 0.013536767 0.07259817
0.017505713 -0.07378943 -0.002035022 0.17535861 -0.04493555 0.10971438 0.1685409 0.021459812
-0.17573556 0.13982242 0.15005033 0.0058244164 -0.16577223 0.049062308 -0.009829964 -0.12291104
-0.13794328 -0.14818951 0.11413102 -0.19827233 -0.1285269 -0.22430654 -0.006301257 0.15711813
0.07390211 -0.10232383 0.08576528 -0.022783943 -0.011974963 0.12029078 -0.20981292 -0.044419095
-0.1780709 -0.2532195 -0.07709175 -0.06866682 -0.07481671 -0.0208108 -0.00017896364 -0.108271025
0.07078936 0.031881686 -0.053763542 -0.18568736 -0.082619414 -0.1709126 0.16348588 0.06455496
0.21029276 0.027417926 -0.16230841 0.118839726 -0.09095346 -0.053837374 0.12639423 0.17176893
0.08328147 -0.1446613 0.21896581 0.115429446 -0.13975225 0.1486649 -0.086738706 -0.09288063
-0.01011173 -0.20793876 -0.13206112 0.2691199 -0.100520074 -0.18889691 -0.05276537 -0.16100514
-0.124505036 -0.020112002 0.048965145 0.13221987 -0.13984674 0.0003401703 0.06542134 -0.20896555
-0.038093206 0.039236236 0.21772802 0.27662 0.018017279 0.16313206 -0.08575014 0.15983607
-0.023258729 -0.09773464 0.21311013 0.207067 -0.0888004 -0.13894549 0.14836867 0.20960268
-0.19339542 -0.118630864 0.11150744 0.108738415 0.23228912 0.08403285 -0.024147354 -0.045126505

linear_out.4.bias f4 [64]
00000000: 4d13 54bb 239c f03b a8b7 373d b6f5 1a3d
00000010: 7db8 d4bb f7cb 9c3c bd48 093d 91e9 183d
00000020: a18f 0d3c b419 213c c078 0f3c c797 a23c
00000030: dd9c 353c b9d1 383c a3c3 293c 89f4 d03c
00000040: c923 663c b876 d03c b1df 5ebb 29da 473c
00000050: 2e54 cfbc 63fd cabc b002 de3c 5f53 a33c
00000060: e5ff 9d39 a98f a6bc 1a75 0a3d a7e7 493d
00000070: 0db1 43bc cadc a3bc 5904 353c e4be aa3b
00000080: 3178 ecbc d2f6 1abd d81d 3e3c 8994 e0bc
00000090: 91cf cb3c f1d2 ac3c 608d 3b3c e7dd a73b
000000a0: 3ead 183d 7d1d 853c 3ff6 723c e885 1abb
000000b0: 0552 553a bcc4 b63b 85d2 413d 9d29 b93c
000000c0: 5bec e83c 2e6d fcbb 692e 513d 072d cfbc
000000d0: 4fbc 673d e1d0 3b3d 72b8 193d 3652 90bc
000000e0: 7110 053d 9d25 cdbb 36d5 a23c fec4 d13c
000000f0: e303 46bb ac40 cfbc 8603 31bb 61f9 f1bb
-0.0032360137 0.0073428317 0.044852883 0.037831984 -0.0064917193 0.019140227 0.033516634 0.03733212
0.008640201 0.009832788 0.008756816 0.019847764 0.011084762 0.0112804705 0.010361585 0.025507228
0.014046618 0.025447235 -0.0034007842 0.0121980095 -0.025308695 -0.024779027 0.02710089 0.019937215
0.0003013603 -0.020332174 0.033803083 0.049293187 -0.011944068 -0.020002741 0.0110484 0.005210744
-0.028865905 -0.037833042 0.011603795 -0.027414577 0.024879249 0.021096678 0.011447281 0.0051228884
0.03727459 0.016249413 0.014829217 -0.002357835 0.0008137527 0.005577652 0.047319908 0.02260285
0.028433016 -0.007703445 0.05106965 -0.025290025 0.05657607 0.0458535 0.037529416 -0.017617326
0.032486383 -0.0062605874 0.019877058 0.025606629 -0.003021472 -0.025299393 -0.0027010157 -0.0073844646

linear_out.6.0.weight f4 [64, 64]
00000000: 438b 053e 233e 26be 6e85 e8bd 5758 9bbe
00000010: 6994 dabd 0405 c6bc 8cbe 57bd db73 29be
00000020: 979e b33d b949 21bd 1514 313e 0df2 4c3b
00000030: 62c6 7f3e 2970 41be 03dd af3e 51ad ba3c
00000040: 941d 8cbe d12d 03be 0353 22bb c418 ee3d
00000050: 24cf 833e 3427 883e 0c2f 9ebd 3950 68be
00000060: f2bf 133e e3ed aa3e 699b a9bd 46ff 61be
00000070: 7643 7ebd cb00 813e 641e 783e 0f8c d9bd
00000080: aac2 953b 7c64 6a3b 9d8a 803d b18a 21be
00000090: 8881 36be d1ab 5dbc 6c25 51bd b3ce 43be
000000a0: 23d9 553e aaa4 08be 6abb 93be 77cb 033a
000000b0: 21e1 83bd 2ef9 e6bd a81c 8dbd ac16 943e
000000c0: 4b15 4e3e c399 16bd 8e9e 4dbd de16 d03e
000000d0: dfd3 8ebd e8bd 3cbe f93f 903e 216c 193e
000000e0: 1c32 c3bc b290 82be dbbe dc3d 3d7e bdbc
000000f0: 65ce 5c3e f7e3 3bbe de56 c9bc 49e5 453c
00000100: f504 623e b658 50be ccd8 843e 9f3f 133d
00000110: 9a02 57be 0411 20bb ad36 393e 6b3d 713e
00000120: fa17 c6bb 0857 48be 2aba 223e 7f34 50be
00000130: 2b4a 903d c6e9 1fbe 39bb 6b3e ad34 473e
00000140: 0587 d73d 6895 7d3d 96eb 99bd 1480 88be
00000150: 47c5 5fbd 0aac f23d e134 d1bc 7a88 6b3e
00000160: 7fb5 a63d 2b7c d83d bacb e33d f8d7 393e
00000170: 8d48 d93d 1f0f 913e 9777 02be af00 b73c
00000180: d242 b03c 7333 0e3b 62e3 223e 5a53 073e
00000190: f431 ebbd 8e77 073e a3ef 0abe 29ad 323a
000001a0: 2541 dfbb d0e2 29be 97b1 533e e05c b6bd
000001b0: fc92 a63b 6f3f d6bd 0aa7 303e 7f8b 5c3e
000001c0: 358d 8bbd c50f 86bd f2d9 74bd 7598 ccbd
000001d0: ffb4 1abe 4831 943e 242e f83d d15b 3dbe
000001e0: 4d2c 20bd 6b29 94bc 9922 68bd 210f 19be
000001f0: 157c 0d3e dfa8 84be 9755 d13d 928a 22be
00000200: eacd 033e a982 883d b242 b1bd 9d4f 973d
00000210: d91c 5fbb ce97 18bd 0f81 13be 0992 0f3e
00000220: 4e52 45bb 21f1 c73a 1b2d 883d fe73 0ebe
00000230: 5651 30be 83b6 bdbd a983 5c3e 8adc 293e
00000240: 595b 5c3c 3bd8 a0bd db36 453e 3f1f 0ebd
00000250: f41d 813d 2974 6c3c 7c88 30be fec8 5abe
00000260: 34a7 a8bd 0d4e 15be db4c 4b3d 2f07 e0bc
00000270: 5dc4 7dbb 0630 163e d440 973c 5e8e aebd
00000280: 7287 04be e4fb 26be 2d55 313e a97d 2bbc
00000290: 0b48 0a3e dd9c cebc f522 f0bd 97ec e63c
000002a0: f08a 1a3d 93c3 be3d 68d1 b2bc 0684 0f3d
000002b0: b51c 3f3e 0e73 313d 6133 fa3d 1c48 303e
000002c0: 97cc 383e f9d4 5a3e 8537 233e b6be fabc
000002d0: c585 0e3c c138 7d3c c0b9 cabd 5e4d 433e
000002e0: 2b78 5f3e 5539 40be 79a9 ac3d c6b8 293e
000002f0: 0b3a af3d 990c 0bbe b2c1 8e3d c326 423c
00000300: 4dda 013e b620 413e 6646 0d3d 14d6 2d3e
00000310: cfd2 42be 56b6 10be 7d5a 1b3e d8d0 303e
00000320: eef1 93bd 4827 1cbe 84d1 483e d150 f33d
00000330: 387e aabd 0e84 15be f491 123e b868 40be
00000340: bbe7 2f3e f7d6 6a3b d7b6 2dbe 917e d63b
00000350: 323c e7bb 7a82 f7bd aecc 40be ed97 bdbd
00000360: 0ce3 01be 3458 de3d 452b a6bb d170 53be
00000370: 4fcd 2cbd 6dd8 2b3e 570f c43d 9792 953d
00000380: d71a 0abe 5a4d 46ba e74f 27be 976c 21be
00000390: d052 ccbc 602c bf3d 3e42 1fbd 756d 13be
000003a0: d2ea 00be 98ee 38be a807 1b3e f25a 763b
000003b0: d70c 273e aa43 39be 1ffc 343e 0a98 1cbd
000003c0: a088 1cbd 5ee4 c93c 525d 493e b1be 22be
000003d0: 7b6a 0ebe 2482 1bbe 3b94 4e3e 9066 1cbc
000003e0: 2fe3 4bbe d0d1 b0bd 8986 043e 6b60 c8bd
000003f0: 5765 4dbe 9c6c 3bbe e1f2 37bd 6f8a 2d3e
0.13041405 -0.16234641 -0.11353575 -0.30340835 -0.10672838 -0.024172314 -0.052671954 -0.16548102
0.08770483 -0.039376948 0.17292817 0.0031272203 0.24978021 -0.18890442 0.34348306 0.022787722
-0.27366316 -0.12810446 -0.0024768717 0.116258174 0.25743973 0.2659241 -0.07723817 -0.22686853
0.1442869 0.33384618 -0.08281595 -0.22070035 -0.062076055 0.25195917 0.24230343 -0.10622417
0.004570325 0.003576546 0.062764384 -0.15775563 -0.1782285 -0.013529734 -0.05106108 -0.19121818
0.20883612 -0.13344064 -0.28853923 0.0005027572 -0.06439424 -0.11277996 -0.06890231 0.28923547
0.2012531 -0.036767732 -0.050200038 0.40642446 -0.06974005 -0.18431818 0.28173807 0.14982654
-0.023827605 -0.2550102 0.1077859 -0.023131484 0.21563108 -0.1834868 -0.024577554 0.012078592
0.22072203 -0.2034634 0.25946653 0.035949346 -0.20997086 -0.0024424205 0.18087263 0.23558585
-0.0060453387 -0.1956445 0.15891328 -0.20332526 0.070453964 -0.15616521 0.23020639 0.19453688
0.105238 0.061910063 -0.075156376 -0.26660216 -0.054631498 0.1184922 -0.02553791 0.2300128
0.081400864 0.10570558 0.11122842 0.18148792 0.10609541 0.2833185 -0.12740932 0.022339193
0.021516237 0.0021698147 0.15907052 0.1321539 -0.11484137 0.132292 -0.13567977 0.0006815964
-0.0068131858 -0.16590428 0.20673214 -0.08904433 0.00508344 -0.10461318 0.1725122 0.21537589
-0.068140425 -0.065459765 -0.05977816 -0.09990016 -0.15108107 0.2894385 0.121181756 -0.18492056
-0.03910475 -0.018086156 -0.05667362 -0.14947177 0.13816865 -0.25910088 0.10221403 -0.15873173
0.12871519 0.066655464 -0.08655299 0.07388232 -0.0034044294 -0.037254147 -0.144047 0.14020552
-0.0030108872 0.0015254357 0.06649228 -0.13911435 -0.17218527 -0.09263327 0.215346 0.16588035
0.013449513 -0.07853743 0.19259207 -0.034697767 0.06304541 0.014431992 -0.17239565 -0.21365735
-0.082350165 -0.14580555 0.049633842 -0.027347175 -0.0038721778 0.14666757 0.01846353 -0.08523248
-0.12942293 -0.16307026 0.17317648 -0.010466971 0.13504045 -0.025221283 -0.117254175 0.028188987
0.037730157 0.093146466 -0.021828368 0.035038017 0.18663295 0.043322615 0.12216831 0.17215008
0.18046795 0.21370305 0.15939148 -0.030608516 0.008698885 0.015455426 -0.0989871 0.19072482
0.21823184 -0.1877187 0.08430762 0.16574392 0.08555993 -0.13579024 0.06970538 0.011850062
0.12680931 0.18860134 0.034490965 0.16976196 -0.1902573 -0.14132056 0.15171237 0.17267168
-0.07223879 -0.1524936 0.19611174 0.11880649 -0.083248556 -0.14601156 0.14313489 -0.18789947
0.17178242 0.0035833695 -0.16964279 0.0065458496 -0.0070567364 -0.12085433 -0.18828079 -0.09257493
-0.12684268 0.10856667 -0.005071076 -0.20648505 -0.042187985 0.16781779 0.09573238 0.073033504
-0.13486801 -0.0007564627 -0.16339074 -0.1576408 -0.024941832 0.09334636 -0.038881533 -0.14397223
-0.12589577 -0.18059766 0.1513964 0.0037590829 0.16313492 -0.18092218 0.17674302 -0.038230933
-0.038216233 0.024645027 0.19664505 -0.15893055 -0.13907807 -0.15186363 0.20173733 -0.009545937
-0.19910882 -0.086337686 0.12941946 -0.09784015 -0.2005819 -0.1830315 -0.04490936 0.1694734

linear_out.6.0.bias f4 [64]
00000000: 4b29 563d 2fec 8c3c 9727 c73c b0ec 983c
00000010: c9b3 023c ce0a 2b3c 6759 c23a e919 1c3c
00000020: 95ce 013c 3770 d63a fffe 163c afea fabc
00000030: fd89 4d3c f7c8 013c 16cd 993c 81ba 8a3c
00000040: 681d eb3c a53d 023c 7cb7 7a3c 43c3 b7bc
00000050: 6612 583d d4c1 513c 075f fe3b 8b48 303b
00000060: 67f8 f93c 0607 a33b e946 6b3c 8c59 c63b
00000070: 1141 8b3c c208 a03c 1b27 8c3b dfd4 133c
00000080: dc74 003c 7a33 863d 95d2 d63c 3025 203c
00000090: 29a6 a63c a5dd bc3b 2097 a73b 1277 b93c
000000a0: 00f6 0b3d 4bfa 663b 81e8 623b ee30 463c
000000b0: 0354 e23c 92fa 953c 40e6 203c 5c45 7e3c
000000c0: 33b9 a13c f758 a7bc 6469 8ebd dd48 02bb
000000d0: 1636 b63c 92de efbc ecce a33c 3139 483d
000000e0: 13cf 5b3c 480c 343c abdb de3c 8699 04bc
000000f0: a246 353c 9717 1b3c 43aa 923c ab2e c53b
0.052285474 0.017202465 0.02431087 0.018667549 0.007977434 0.010439588 0.0014827669 0.009527662
0.007922788 0.0016360347 0.009216069 -0.030629484 0.012545106 0.007921449 0.01877455 0.016934635
0.028700545 0.0079492675 0.015302535 -0.022431975 0.05275192 0.01280256 0.007762793 0.0026898708
0.030513955 0.0049752025 0.014360168 0.0060531553 0.0169988 0.019535426 0.0042771227 0.00902292
0.007840361 0.06552787 0.02622346 0.009774491 0.020342903 0.005763727 0.005114451 0.022639785
0.03417015 0.00352444 0.0034623446 0.012096627 0.02762795 0.018307958 0.009820521 0.015519466
0.01974163 -0.020428164 -0.069536954 -0.0019879856 0.022242587 -0.029280934 0.019996129 0.048882667
0.01341607 0.010989256 0.027204355 -0.008093243 0.011064203 0.0094660735 0.017903453 0.006017526

linear_out.6.2.weight f4 [1, 64]
00000000: 1b01 3ebe 9b35 3b3e 8009 073e b9b0 703c
00000010: b41e e3ba fa54 3b3b 8527 3d3e b540 49be
00000020: 5e95 d43b 5d73 32be 9672 d6bc 4493 9e3e
00000030: 8170 5d3d 2c99 f7bd 9ac0 063e 9f34 26be
00000040: 39eb 523d 41b8 01bd d853 7dbc 2d4a 763e
00000050: 6b60 5fbe 409a 313d d741 f23d 4b7f 163e
00000060: d215 833e e929 84be 4aa2 063d 70f5 873d
00000070: 3699 4dbd 188b aa3d 85ae 3d3d 65db 7bbe
00000080: ec10 aabd 1c0d 70be 926f d6bd afea fa3d
00000090: 965a a6be da4b ed3d d78c f5bc e383 70bd
000000a0: 5258 efbd 631a 32be 48a0 603e 74ab 00bd
000000b0: eefd 1bbe 86a1 46be 166f af3c 2908 373d
000000c0: a487 163e 44c8 6b3e b6dc 83be 2a0e 543e
000000d0: 2aac 293e 5c14 da3e 2885 883e 5504 0f3e
000000e0: cf34 223e f7c4 e73d 74e0 403e c496 513e
000000f0: 61cd 2cbd dc30 033d 1a1f d13d eccc 46be
-0.18555109 0.18282168 0.13187218 0.014690571 -0.0017327876 0.0028584586 0.18472107 -0.1965359
0.0064875325 -0.1742682 -0.026177686 0.3097173 0.05406237 -0.12089762 0.13159409 -0.16231011
0.051493857 -0.03166986 -0.015461884 0.24051733 -0.21814124 0.043359995 0.11828964 0.14696996
0.25602585 -0.25813225 0.032869615 0.0663861 -0.05019494 0.08327311 0.046309013 -0.24595411
-0.08304009 -0.23442501 -0.10470499 0.122517936 -0.32490987 0.11586733 -0.029974384 -0.058719527
-0.11686768 -0.17392878 0.21936142 -0.03141351 -0.15233585 -0.19397554 0.021415275 0.044685517
0.1470018 0.23025614 -0.25754327 0.20708528 0.16569582 0.42593658 0.2666409 0.13966496
0.15840457 0.11316865 0.18835622 0.20467669 -0.042188052 0.032029018 0.1021101 -0.19414109
