checkpoints/1dconvection_ProPINN_point.pt (torch, 70443 bytes, 16 tensors)

linear_emb.0.weight f4 [8, 2]
00000000: 47ca e7bb 6316 b53e 71ba 54bc 6431 263f
00000010: 23f4 48bc f1fe 1c3f 37a7 75bc a1ea 3f3f
00000020: 6c10 75bc cc74 3f3f d909 ba3b 1158 91be
00000030: 3675 bfbc 8293 953f 2dcf 953c c113 6abf
-0.007073674 0.35368642 -0.012983904 0.64919114 -0.012265238 0.6132651 -0.01499348 0.7496739
-0.014957529 0.7478759 0.0056774435 -0.28387502 -0.02337132 1.1685641 0.018287266 -0.9143639

linear_emb.0.bias f4 [8]
00000000: 43a7 a1bb 38f8 df3d e766 923d 2b37 3ebe
00000010: 3003 3cbe 8a61 97bd 4d9b 94be 30be 20be
-0.004933269 0.10936016 0.07148533 -0.18575732 -0.18360591 -0.07391651 -0.29024735 -0.15697551

linear_emb.2.weight f4 [32, 8]
00000000: be85 c03e d7fe 5b3e 0e5a e43c 87b0 acbd
00000010: 60fc 5fbb e4b7 b0be a544 bf3e 5b36 2ebc
00000020: 89a2 b3be c2db 2abe 4c46 bdbe ef65 86be
00000030: 5938 88bd ec1f 3f3e d01d c3be 924a a63e
00000040: 27c9 913e e991 cfbe e343 aabd d2d1 90be
00000050: 6f6a aa3d f52b a83e 2eba c63e f962 8e3e
00000060: d85d d0bd 2c1c 663c f29f 2fbe f128 3d3e
00000070: ec6d 47be 72b3 46be 02b0 9dbe f9bd a83e
00000080: 2062 87be 2505 0f3f 8435 d4be 484c 493e
00000090: 9c1b 6a3e 3099 58bd 45d1 85be 4bf0 66be
000000a0: 18da 4a3e 6664 e63c 01f8 ae3e 179d 54be
000000b0: 1756 52be 934a 56be ff62 963e 3fa7 d53d
000000c0: 3655 fabe 1256 22bd 5538 bdbe f319 ccbd
000000d0: 6631 15bf 898b fc3d 0b38 87bd f813 66be
000000e0: f3a6 833d b046 143e 0afa 89bd 54b3 a53e
000000f0: 267a 8a3d 1b83 793b 00f8 813e 40a1 8d3e
00000100: 6108 34be 2af5 a6bc 44d4 5bbe a462 953e
00000110: 757a 093f 528c d7be 1398 2fbe 533a bc3c
00000120: dcf1 053e d39e 1abe 3c84 ad3d 5f14 a53d
00000130: 2204 b4be 5898 9dbd 422b cb3e 784b bbbe
00000140: 3b5d b0bd 2e52 f83e 21ed 303e 5579 7fbe
00000150: 5857 cc3d 3a5d 94bc 3ec7 8f3e 105d 89bc
00000160: 21c2 af3e eb78 543e f6cc 2d3e d433 1bbe
00000170: 1d86 713e 6825 bc3e 9f98 0abf 0ad4 e6bd
00000180: 8f7c 853e bc9a ee3e 4f86 923e 926b 113f
00000190: 1697 b73e 0c27 793e e897 933e 45d0 123e
000001a0: dd48 a13e f05d a63e 54e7 8c3d 0097 f13d
000001b0: cccc 00be 8aff 8bbd be30 37be 289e 9f3e
000001c0: 6f27 193e 60aa 0a3e 11e1 95be 0de3 81be
000001d0: 57f1 553e ff03 47be ec6d 4abe 51b0 a43e
000001e0: e469 e73d f12f 2e3e 12f2 523e a775 e6be
000001f0: ca68 da3e 025c 21bc 2e48 81be 1d57 993e
00000200: 085a 843e eb40 8a3c 065a 1b3e b586 373d
00000210: 283b 133c 41db 153e 27bf 103f 62fd 723e
00000220: 58b3 70be 341e 92bd ab42 75bc b9b9 d9be
00000230: 123d 99bd 52bd b13e 8b69 16bf 730d 2a3e
00000240: 1ee0 943d fe1a 393d eead 3a3e a4f7 b3bd
00000250: 11ba 373e 7287 e43c 6214 38bd fe88 d4be
00000260: 10dd 34be 653e b43e 41b2 11bd 6fad ddbe
00000270: 79e5 88be 38f6 a63e e723 513d d0f2 7c3e
00000280: 873a 7ebe 8be4 36be fb7d b6be e36e 05bf
00000290: 549f fabc ae12 2e3e 25b9 0ebe 5d42 acbe
000002a0: 3c40 783e 5b06 1abc 8391 1abe 9d42 21bc
000002b0: c20a e63e a957 56be a016 b83d 3efc 4dbe
000002c0: 54bb cabe 7a96 5c3e 64dc 3a3e e191 13be
000002d0: 0d2f 573e 9dd5 ba3e cfaf f6be 2abc 77bd
000002e0: c699 163e 0979 33be 979f 0ebd 8d43 7cbd
000002f0: 3f66 303e e751 11bd 2219 6f3e b3d8 553d
00000300: 8f13 86bd 5fc9 0f3d 90ec 073e a1c6 313d
00000310: 8bac 1cbe ee11 b53e b7cd fdbd edc8 2d3e
00000320: 5d59 81be 9cba 90be 6a68 7c3e d9fb 5e3e
00000330: 7dfb cf3e b6aa 8e3e ad92 a13c 73c4 9bbe
00000340: 4890 e5bd 40e1 d63c 2f86 05be be0e a33d
00000350: 4caf 7e3c b4c7 1ebd 4718 d3be 3f9b 693e
00000360: c494 16bd f90b 6fbe a8cd d4be af2d 04bf
00000370: ce81 353e f1fa 6a3e a570 54be baa8 3b3e
00000380: c42c 523c 4b77 663e c8ed babe f057 a33e
00000390: ad84 093e c845 6b3d 6db0 6cbe c043 64be
000003a0: b54a e33d 2d5d 2f3e a674 f5bd f453 c0be
000003b0: cdab d3be d1e2 86bd 217c cabe d0cf 8e3e
000003c0: 02a1 403e 087c 1bbe 71ef e33d 0a23 e7be
000003d0: d883 293e 3522 243d 8dee bbbe d86f 003c
000003e0: bc90 8c3d 452f 613d f6d1 593e 7bc8 75be
000003f0: be10 26bd 9f2a 393e 7398 21bf 3459 9b3e
0.37602037 0.21483932 0.027874973 -0.084321074 -0.0034177527 -0.34515297 0.3735706 -0.010633077
-0.35084942 -0.16685393 -0.36967695 -0.26249644 -0.066513725 0.18664521 -0.38108683 0.32478768
0.2847378 -0.40541008 -0.083137296 -0.2828508 0.08321082 0.32846037 0.3881392 0.27809885
-0.10174149 0.014044803 -0.17150858 0.18472649 -0.19475526 -0.1940439 -0.30798346 0.32957438
-0.2644205 0.55867225 -0.4144708 0.19658005 0.22862095 -0.052880466 -0.26136222 -0.22552602
0.19809759 0.028124046 0.34173587 -0.2076305 -0.20540653 -0.20926885 0.29372403 0.1043229
-0.48893136 -0.039632864 -0.3695704 -0.09965887 -0.582785 0.12331302 -0.06602486 -0.22468555
0.064283274 0.1448009 -0.06737144 0.3236338 0.06761579 0.003807253 0.2538452 0.27662086
-0.17581321 -0.020380575 -0.21467692 0.2917682 0.5370248 -0.42099243 -0.17147855 0.02297703
0.13080543 -0.15099649 0.08472487 0.08060526 -0.35159403 -0.07695073 0.3968144 -0.36581016
-0.08611532 0.48500198 0.17277957 -0.24948628 0.09977597 -0.01811086 0.28081697 -0.016768008
0.34327796 0.20749252 0.16972718 -0.1515649 0.23586316 0.3674729 -0.5413913 -0.11270912
0.26071593 0.46602428 0.28618094 0.56804764 0.35857457 0.24331301 0.28826833 0.14337261
0.31500903 0.32493544 0.0688006 0.11796379 -0.12578124 -0.068358496 -0.17889687 0.3117535
0.14956449 0.13541555 -0.29273275 -0.25368538 0.20892845 -0.19435118 -0.19768494 0.3216577
0.11299494 0.17010476 0.20600155 -0.45011637 0.42658073 -0.0098485965 -0.2525038 0.29949275
0.25849938 0.016876658 0.1517106 0.0448062 0.008986272 0.1463442 0.56541675 0.2372947
-0.23505914 -0.07134667 -0.014969508 -0.42524508 -0.07482351 0.34714752 -0.58754796 0.16606693
0.072693095 0.045191757 0.18230411 -0.08787468 0.17942072 0.027896617 -0.044941314 -0.41510767
-0.17662454 0.35203853 -0.035570387 -0.43296382 -0.26737574 0.32609725 0.05105963 0.24702
-0.24827014 -0.1786062 -0.3564299 -0.52122325 -0.030593552 0.16999313 -0.13937815 -0.3364438
0.24243253 -0.009400929 -0.15094571 -0.009842542 0.44930083 -0.20931877 0.089886904 -0.20115754
-0.39596045 0.21541777 0.18248135 -0.14411117 0.21014042 0.364911 -0.48181006 -0.06048218
0.14707097 -0.1752664 -0.034820165 -0.06158786 0.17226504 -0.0354785 0.23349431 0.052208614
-0.06546699 0.03510415 0.13273835 0.043402318 -0.15300195 0.35365242 -0.123927526 0.16971178
-0.2526349 -0.28267372 0.24649206 0.2177576 0.40621558 0.27864617 0.01972326 -0.30423316
-0.1120916 0.026230454 -0.13039468 0.07961796 0.015544724 -0.03876467 -0.4122946 0.22813128
-0.036762968 -0.23344411 -0.41563153 -0.5163221 0.17725298 0.22947289 -0.20746095 0.18326083
0.012828056 0.22506444 -0.36509538 0.31903028 0.13429518 0.057439595 -0.23114176 -0.2229147
0.110982336 0.17125387 -0.119851395 -0.3756405 -0.4134201 -0.065862305 -0.39547828 0.27892923
0.1881142 -0.15184033 0.11129654 -0.4514392 0.165542 0.040071685 -0.36705437 0.007839166
0.068635434 0.05497672 0.212715 -0.24002258 -0.04054331 0.18082665 -0.63123244 0.30341494

linear_emb.2.bias f4 [32]
00000000: 44c6 b73b 183a eabc ccae 6cbd 9871 9fbc
00000010: 54a5 1a3d b6a1 c6bd b88e 2abd 6a4c d03b
00000020: be53 1dbb 48a2 1e3d d46e 3fbd 7d44 78bc
00000030: 1388 923e a6c3 89bb f18f d03c d1d0 8cbd
00000040: 40df e03d aa43 373d 1750 7e3d 393e 99bd
00000050: 67fa bebc c93f 99bc 8e06 e43b 6458 9cbd
00000060: fe97 193c e92e e9bd 4c2e 82bd eb51 053d
00000070: e462 61bd 9c1f 223a 0fce 6ebd cc68 32bc
0.005608352 -0.028592154 -0.057783887 -0.019463345 0.037755325 -0.09698813 -0.041640013 0.0063567655
-0.0024006213 0.038728982 -0.046736553 -0.015153048 0.2861944 -0.0042042313 0.025459262 -0.06875766
0.109800816 0.044742264 0.0620881 -0.07482571 -0.02331276 -0.018707173 0.006958789 -0.07634047
0.009374617 -0.113859005 -0.06356487 0.032548826 -0.05502595 0.000618452 -0.05830198 -0.010889243

multiregion_mixer.0.weight f4 [8, 4]
00000000: e91b 25bf 90a9 d73e 510b 0d3f 660d f23e
00000010: bb05 a43d 6a2b b1be fe52 b2be a83b 73bd
00000020: 2ea1 dfbe c75f 613e fcde 47bf 89dd 963e
00000030: 24e5 fdbe de17 143f b859 0dbf d4c1 26bf
00000040: 6d40 203f c3c5 0d3f 2ddc 03bf ff12 3c3e
00000050: c7dd 8d3d 224c 063f 7d69 18bd 45e6 3fbe
00000060: 7e6f b7bd f425 bfbe 2363 eb3c 5775 18be
00000070: 0bdd 953e 37f5 053f 0fe7 0a3f 02e3 dbbe
-0.6449571 0.42121553 0.5509539 0.47275847 0.080089055 -0.34603435 -0.34828943 -0.059383065
-0.43677658 0.22009192 -0.7807462 0.29465893 -0.49588883 0.5784892 -0.55215025 -0.6513951
0.62598306 0.55379885 -0.51507837 0.18366621 0.06927066 0.5245992 -0.037209976 -0.18740185
-0.08956812 -0.37333643 0.028733796 -0.14888512 0.29270205 0.52327293 0.5425882 -0.4294663

multiregion_mixer.0.bias f4 [8]
00000000: 40ab b8bd be7a 6cbd 5a54 9cbd 208f 803d
00000010: c757 debd 6058 463d 0b9b 8bbd 8646 05bd
-0.09017038 -0.057734244 -0.07633276 0.06277299 -0.10856586 0.048424125 -0.068166815 -0.03253796

multiregion_mixer.2.weight f4 [1, 8]
00000000: bab3 153f 146b 04bf bc92 e1be d2e7 393e
00000010: bafc e23e 15dc 913e 6d9a 3cbf 4447 433f
0.58477366 -0.5172589 -0.44057262 0.18154839 0.4433344 0.28488222 -0.73673135 0.7628062

linear_out.0.weight f4 [64, 32]
00000000: d130 373e 498f 6b3e 72e5 96be 2cdf bfbd
00000010: 65c7 613e 8eb2 53be 35fe 563c 56f8 1f3e
00000020: aaa0 223d cf15 16be 5778 3fbe f862 503e
00000030: 441a 09be 3fa7 18bd 1381 99bd 27da 083e
00000040: c71f 2b3e 763f c0bc 3bf6 373e e247 dcbd
00000050: bfdd 25be 7fcb 21be 3601 5dbd 058b d93c
00000060: 9986 663e bb05 a0bc 16b7 be3d bd6a 993e
00000070: 1bca 643e 8651 25bd 93da 0ebd 6452 18bd
00000080: 4204 e33d 58d2 613e 2d2e 103e 8862 56bc
00000090: 500f c53d b17f 33be 6e16 1dbe 0e92 4d3e
000000a0: 2ed7 133e dc1a 533e 3181 0abe 0147 7cbd
000000b0: 9776 713e 4797 fabd bdc5 b63d 6345 41bd
000000c0: 0e4f 063e 3abe 4abe 0643 b8bb 8e42 133d
000000d0: 85f7 3fbe e261 93bd a1e1 d6bd 7a18 6e3e
000000e0: b7f5 8bbb a35c 223c 91eb 803c 6453 63bd
000000f0: 3f73 29be adcd 8dbd 608a 75be bb6a 5f3e
00000100: 0207 75be 27f0 6b3e 8adc abbe c3ec e0bd
00000110: e217 9dbe 47e4 0a3e 33fa 9e3c 9039 5e3c
00000120: 0b39 47be cf89 82be 0af7 86be c3fa fd3d
00000130: ed54 393d 081d 1c3c 4098 38be cb06 a23e
00000140: 4823 babe 8a69 b73e 82e8 2a3c 9b72 d53d
00000150: 0cde bb3d 4a91 90be 7b98 503e 9110 24be
00000160: eea5 a8bd 765c 06be 69ca b0bd 4baa 693e
00000170: 2f7f 073c 5c1b 33bd d3e6 973e 06e1 b03e
00000180: b31a 57bc b885 03be fa71 003e ad15 20bc
00000190: aed1 27be 9c28 e93d 8e30 9c3c 05ff 1b3e
000001a0: 9871 62bd 2c47 f23d 1f6f 063e e21e be3b
000001b0: 3f97 b6bd 1f67 a7bd efcc 693d 04e9 da3d
000001c0: ecb9 7d3e 6a09 4e3e 285a 34be 45fa 15be
000001d0: 6239 f3bd faf4 2c3e a9a9 b9bd 008c 20bd
000001e0: 5ea5 6fbd 3d18 13be f632 babd 5b8a 463e
000001f0: 8eaa 1b3e 27dc 253e 7495 91bd 2799 0dbe
00000200: 30c2 f63d 59dc 4a3e 3224 0dbe c548 4abe
00000210: 6911 75be 29fa b83d 4b3b 5b3e aaff 48bd
00000220: 1478 c03c 9a6d 0ebe de36 a0be 34e3 99be
00000230: a367 91bd 277e 5abe 04a9 f53a 04c1 413e
00000240: bd35 96be d2dc 883e 7e52 243d 09fb fc3d
00000250: b7a5 863d 0fa5 98be 4e23 ea3d b9be 353c
00000260: fd83 99bd a631 123e 14bf 803d 4224 e83c
00000270: 73a8 17bd d9eb 5c3e 9f8a a0bd 3b13 cbbd
00000280: 1898 623e 6257 8e3c b23f ad3d be18 df3d
00000290: 6b57 ecbd c547 99be 5090 243e f73c ea3d
000002a0: 5896 92be 2c2a 7abe 9164 5d3e 4483 b9bd
000002b0: 1d5c 94bd aa2b 913d 7b41 2a3b a560 d0bd
000002c0: 0771 f63d b4aa e4ba 64e8 f33d d879 1ebe
000002d0: ba40 39be b41f ae3d 82ae 8c3c 22da 9b3b
000002e0: d7e0 94bd a32c 6dbe e36f 073e b78a bf3d
000002f0: 026e 63be 667a 31be d838 c43d 444b 6bbe
00000300: a95c 853e 1f31 ffbc 9b2f edbd 4dfb 5cbc
00000310: 8666 133e a97f d53c 6900 cfbe 690c 7e3e
00000320: f4fa 2a3e f6cc 5b3e 5f5a 003e 8585 6f3e
00000330: 8ccf 2e3e 63cb d6bb e8f8 753e de90 343e
00000340: 5f05 54bd 9e33 263e 9fb7 d53d 4e2f 203e
00000350: dde4 04be 1722 e23d 43c8 3f3e dbe1 dd3d
00000360: 5047 053d aa2e 523e e06c d63d 637d 88be
00000370: 1707 de3c 101f 683e fe4a 65be 3bd9 113d
00000380: ab83 e03b c8d7 13bd b0b4 07be 1e21 dcbb
00000390: 6861 3fbd 5605 10be e2c1 333e fba2 0e3e
000003a0: ef36 5abe 4360 c93c 6083 853d d84b f7bd
000003b0: a89f 1fbe 37af 7d3e f9a1 5bbd bc36 7fbe
000003c0: ad6d 8fbd 30a0 223d a09c 5e3c 2134 813d
000003d0: 31cb 683e 666c a6be 710f 083e 2b49 25be
000003e0: c78c 943e 7dc0 8c3d 93a7 073e f82b 253d
000003f0: ed2e ec3c 21d3 4a3c f8c9 d0bd 1f6e 3c3e
0.17889716 0.23003878 -0.29471928 -0.093687385 0.22048719 -0.20673582 0.013122131 0.15622076
0.039704002 -0.14656757 -0.1869825 0.20350254 -0.13388926 -0.037268873 -0.07495322 0.13364469
0.16711341 -0.02346776 0.17965023 -0.10755898 -0.1619787 -0.15800284 -0.053956233 0.026555547
0.22512282 -0.019533983 0.093122646 0.29964247 0.22342722 -0.04036095 -0.034876417 -0.03718795
0.110847965 0.22052896 0.14080115 -0.013085015 0.09622061 -0.17529179 -0.15340587 0.20075247
0.14437553 0.20615715 -0.13525845 -0.061591152 0.23580395 -0.12235885 0.08924434 -0.047185313
0.13116094 -0.19799128 -0.005623224 0.035952143 -0.18746765 -0.07196404 -0.10492254 0.23251525
-0.004271235 0.009909782 0.015737327 -0.05549945 -0.16547869 -0.06923995 -0.23978567 0.21818058
-0.23928455 0.2304083 -0.33566695 -0.10982659 -0.30682284 0.13563643 0.019406414 0.013563529
-0.19455354 -0.25495765 -0.2636035 0.124013446 0.045247007 0.009528406 -0.18026829 0.31645808
-0.36355042 0.35822707 0.010431411 0.1042225 0.091732115 -0.28235847 0.20370667 -0.16021945
-0.082347736 -0.13121209 -0.08632357 0.22818868 0.008270069 -0.043727264 0.29668292 0.3454668
-0.013128924 -0.12843978 0.12543479 -0.009770793 -0.1638858 0.11384699 0.019066121 0.15234001
-0.055284113 0.11829981 0.13128327 0.0058020214 -0.08915567 -0.08173966 0.057080206 0.106889755
0.24777955 0.20120779 -0.17612517 -0.14646251 -0.11876179 0.16890326 -0.09065563 -0.039196014
-0.058507316 -0.14364715 -0.09091751 0.19388716 0.1520178 0.16197263 -0.07108584 -0.13827954
0.12048757 0.19810618 -0.13783339 -0.19754322 -0.23932423 0.09032089 0.21409337 -0.049071945
0.023494758 -0.13908997 -0.3129186 -0.30056155 -0.07099845 -0.21337186 0.0018742387 0.18921286
-0.29337874 0.26730973 0.040117733 0.12352569 0.06574576 -0.2981343 0.11432515 0.011092835
-0.07495878 0.14276752 0.06286445 0.028337602 -0.03702588 0.21574344 -0.0783894 -0.09915777
0.22128332 0.017375652 0.084594145 0.10893391 -0.11540111 -0.29937568 0.16070676 0.11437409
-0.28630328 -0.2443015 0.21620394 -0.0905824 -0.07244132 0.070884064 0.002597897 -0.101746835
0.12033277 -0.0017445893 0.11909559 -0.15476167 -0.18091097 0.08502141 0.017173056 0.004756228
-0.07269447 -0.23161559 0.13226275 0.0935263 -0.22209933 -0.17331848 0.095811546 -0.2297793
0.26047257 -0.031151352 -0.11581346 -0.013487649 0.14394578 0.02606185 -0.4043 0.24809422
0.16697294 0.21464905 0.12534474 0.23390777 0.1707136 -0.0065550073 0.24020731 0.17633387
-0.051762935 0.16230628 0.104354136 0.15643045 -0.1297793 0.11041658 0.18728738 0.10834094
0.032538712 0.20525613 0.10469985 -0.26658162 0.02710299 0.226681 -0.22391888 0.035607558
0.0068516335 -0.036094457 -0.1325252 -0.006717815 -0.046723753 -0.14064535 0.17554429 0.1392936
-0.21310018 0.024582034 0.065191984 -0.12075013 -0.15588248 0.2477387 -0.053621266 -0.24923223
-0.07003341 0.039703548 0.013587147 0.06308771 0.22733761 -0.32504576 0.1328714 -0.16141193
0.29013655 0.06872652 0.13247518 0.040325135 0.02883097 0.012379439 -0.101947725 0.18401383

linear_out.0.bias f4 [64]
00000000: ecc1 1dbc ff0d 3f3d dacb cebd 047f 9bbc
00000010: a751 7bbd a218 5cbd d033 df3b 1305 6cbd
00000020: bb7e 5f3d 2b51 4d3d 668b d03d 13e9 a5bd
00000030: 39c1 9a3d da00 7fbd 019f 86bd 8ab1 c4bd
00000040: a587 95bd efda 393d b575 fabc 273e f1bc
00000050: 505f ba3c afc1 f6bd 6603 b6bd b855 fcbc
00000060: 8d62 143c c880 cbbd fa82 373d 6da3 ad3c
00000070: 9c96 cebc 64a3 163d e55d 133e 7cf3 ef3c
00000080: 9c5e 36be e90c d33c 5933 793b ad23 20bd
00000090: 31e3 a7bc e746 173d 4e8b 2bbd 9188 a13b
000000a0: ce55 15bc f3e7 40bc 1cdd 583d 7178 85bc
000000b0: 0539 bcbc 5322 c73c 6941 fb3d fa18 21bd
000000c0: 6df9 1b3d d021 37bd 8870 cfbd a0e2 633c
000000d0: 6a3b cd3c 4743 83bb 0ac0 d3bd 1e78 d0bd
000000e0: 3579 aa3d 81c0 13bd 0c1b 723d cb96 bd3d
000000f0: d761 2dbe 8fe5 bf3a 55a2 163d 1ffa 9a3d
-0.009628754 0.046644207 -0.10097475 -0.018981464 -0.061357167 -0.05373443 0.0068115965 -0.057622027
0.05456422 0.050126236 0.10182838 -0.08101096 0.075563855 -0.06225667 -0.06573296 -0.096041754
-0.07301263 0.045374807 -0.030573705 -0.029448582 0.022750527 -0.12048661 -0.08887367 -0.030802593
0.009056699 -0.099366724 0.044802643 0.021196092 -0.0252183 0.036776915 0.14391287 0.029290907
-0.17809528 0.025762992 0.003802499 -0.039096523 -0.020494075 0.036932852 -0.0418809 0.00492961
-0.009114696 -0.011774051 0.05294524 -0.016292783 -0.022976408 0.02430836 0.12268335 -0.03933046
0.038079668 -0.04470998 -0.101288855 0.013909012 0.025052745 -0.004005823 -0.10339363 -0.101791605
0.083239 -0.036072258 0.059107825 0.09257277 -0.16931854 0.0014640557 0.036775906 0.07567238

linear_out.2.weight f4 [64, 64]
00000000: 0015 72bd ac51 f23d a3ef 523e 1a2a 3dbe
00000010: 4843 1bbe 2598 06bc c9af 163e 8e61 7c3c
00000020: fd98 58be 5597 db3c bd71 c3bd 7341 de3c
00000030: 2061 e33c fbcf a6bd 5082 5cbe f9a2 5c3d
00000040: 3939 28be 3783 60be 37b5 883d f624 2dbe
00000050: 4782 d23d 61d4 c93d bf9f 023e ad3e f8bd
00000060: 9ee2 6fbe 1572 40bd 5ff6 063e e2c4 3bbe
00000070: e843 9f3b 4e78 9e3c 72c4 133e 71d6 3ebe
00000080: 3552 96bd b5da 053e 05c9 89be e2fd ab3d
00000090: 5d92 563d 1259 8cbc 6e8d d63d 937e f6bc
000000a0: 2359 a03d b525 843a 7aee eebd 1f3d 4cbe
000000b0: 2c15 79bd fa99 413c f74b 193e 6f5c f8bd
000000c0: adca 02be 7438 38bc adb8 233d a120 0a3e
000000d0: 51ec 00bd b54a 79bd 6c09 f03d c536 213d
000000e0: aa36 e1bc 770e db3d 750a 8e3d 8daa 24be
000000f0: e841 2b3e d830 e33d 593f dcbd ac74 47be
00000100: b4db 6a3e 44ee 523e e671 83be 38de 39be
00000110: 0856 35be 3462 4d3e ee11 133e d173 1fbe
00000120: ba3b 223d cc1b df3d ab9e 16be 82d8 83be
00000130: 20a4 c6bc 759d 68be 2667 fdbd bb3a 703d
00000140: 1265 bf3d ca3e e63d 15bc b13d 4898 29be
00000150: 52e0 803e 1039 9f3d ef8e 2a3e e9c0 2f3e
00000160: fefc 493e 7360 913d bf2a 74bd 7a27 a63c
00000170: 2473 553d c7c4 27bd 2b84 8a3d d3eb 393d
00000180: 2acd 92be 5bfc 31be 105a 9e3e ac5e 21be
00000190: dc7d 17be bf43 1a3e 40bb d2bb 2a45 b6bc
000001a0: caf3 a0bd d5df 14be e93e 0ebe 5c8e d7bd
000001b0: 6c14 5f3d 4635 b23e 871e 9cbe f892 26bd
000001c0: a223 7dbe 0018 cd3d 399e 86bd c76b 303e
000001d0: 6050 a03d 9b87 e33d 11df 8d3d 3616 a93e
000001e0: a3db a9bd 3fe9 2dbe 2964 c73a 2b0f 0cbe
000001f0: 7055 67bd 8404 2d3e d3ba 6abe ed6b 0e3e
00000200: 7be4 b8bd 0142 9a3d e073 fd3d edc5 81be
00000210: 6610 ae3d 9ce1 0d3e 4cb6 a5bd 4a23 433e
00000220: d889 c8bd cf2b e93d 0641 ce3d 842e ff3d
00000230: 62da 30be a5a7 51bd 3d09 2b3e ef03 8ebe
00000240: 00b1 b6bd a49b 0d3e 014c a6be dcfc 563e
00000250: 82ba c63d 1a89 f03d 6270 38bd d5d7 703d
00000260: 74bf 6cbe 43e8 c2bc a3b8 3abe 6907 423e
00000270: e19b 4d3e d956 413d d1d2 28bd b272 2ebe
00000280: 206a 5c3e e561 ebbc 4e66 51be b76a ea3a
00000290: 78ed 1c3b b81d 273e ffb2 b83d 854a 33be
000002a0: 3168 0d3e 58b1 b43b 1415 8a3d 17b4 60be
000002b0: 3e9e cf3b 3bfb 723e 3d41 69be 3cfb 8abe
000002c0: e9ea f23d e7cf dc3d c08a 34be 024e c93d
000002d0: e66e f03d 960b f63d fd0a 83be 16c3 8a3d
000002e0: ee7e c53d b592 203e b0b1 58bc b588 51be
000002f0: bfb1 d73d 4671 613b 6cf8 223e 97f8 0cbe
00000300: 64bc 083e 08c7 43be e8df 12be cc91 6cbd
00000310: 3101 2ebe 5e06 af3c ceae 07be fff3 913d
00000320: d507 27be 1dfd 16be d064 58bc d91a 693e
00000330: 7e56 c53d 361e 243e 8844 fe3d 93e4 a13c
00000340: 0feb a93d d0aa 89be 5c6d 92bd 1d08 163e
00000350: aa46 873d 1672 083e 64bf 023d 098a de3d
00000360: 0f2e 443d 98c0 a7bb 6af4 62be 086d 90bc
00000370: 457c 2e3d a4e7 48bd 1d7e a43c 6661 41be
00000380: cbb1 783e 0d25 43be 89e2 32be 9846 ae3c
00000390: 414d 85bd 6f5e 7bbd fa73 32be 4bde ca3d
000003a0: c26d 79be 57ea 423e cb41 e7bc 12f5 cb3d
000003b0: c097 223e 7183 0ebd 6368 a2bc f0be 00be
000003c0: fd1c 4dbd 2178 35be bd93 313e 360e 0b3e
000003d0: b692 023d ae7b 6cbd e039 333e 7287 48bd
000003e0: cfec 603e 7fca 553e dfbe 8fbd aecc 893d
000003f0: b7b5 693e 39ae a83d c48a a03d c554 6abe
-0.05910206 0.11831984 0.20599227 -0.18473092 -0.15162385 -0.008214985 0.14715494 0.015404118
-0.2115211 0.02680556 -0.09543178 0.027130818 0.027756274 -0.08145138 -0.21534085 0.05386636
-0.16428079 -0.21925054 0.06675189 -0.1690863 0.10278755 0.09854961 0.12756251 -0.121213295
-0.23426291 -0.046983797 0.1317992 -0.18336824 0.00486039 0.019344475 0.14430407 -0.1863649
-0.073398985 0.13071711 -0.26911178 0.08398034 0.052385677 -0.017132316 0.10476194 -0.030089652
0.078295015 0.0010082038 -0.116665795 -0.19945191 -0.060811207 0.011816496 0.14970385 -0.12127005
-0.12772627 -0.011243928 0.039971042 0.1348901 -0.03147537 -0.06086226 0.11720547 0.039358873
-0.027491886 0.10696118 0.06935588 -0.16080685 0.1672436 0.110933006 -0.1075427 -0.194781
0.22935373 0.20598704 -0.25672835 -0.18151176 -0.177086 0.20056993 0.14362308 -0.15571524
0.03960774 0.10893974 -0.14708965 -0.2575112 -0.024248183 -0.22716315 -0.1237319 0.05864976
0.093454495 0.11242445 0.08678452 -0.16561997 0.25171143 0.07774556 0.16656087 0.17163433
0.19725415 0.07098474 -0.05961108 0.020282496 0.05211176 -0.040959146 0.0676349 0.045390915
-0.28672153 -0.17381422 0.30928087 -0.1575877 -0.14794105 0.15064906 -0.0064310133 -0.022249777
-0.07858999 -0.1453851 -0.13891186 -0.105252 0.054462835 0.3480627 -0.3049204 -0.040667504
-0.24720624 0.10014343 -0.06573147 0.17228614 0.0782783 0.11109849 0.06927312 0.33024758
-0.082938455 -0.16983508 0.0015212345 -0.13677661 -0.056477964 0.16896254 -0.2292283 0.13908358
-0.09027954 0.075321205 0.12375617 -0.25346318 0.084992215 0.13855594 -0.08091411 0.1905643
-0.097919166 0.11385309 0.10070996 0.12460044 -0.17270806 -0.05118527 0.16702743 -0.27737376
-0.08920479 0.13828903 -0.3247986 0.20994896 0.09703542 0.117449 -0.04502905 0.058799583
-0.23119909 -0.023792392 -0.18234496 0.18948139 0.20078994 0.047201965 -0.041216675 -0.1703594
0.21524858 -0.028733203 -0.20449182 0.0017884587 0.0023945253 0.1631993 0.09018516 -0.17508896
0.13809277 0.005514305 0.067423016 -0.21943699 0.0063360026 0.2372865 -0.22778793 -0.27144802
0.11861212 0.10781842 -0.17631054 0.09829332 0.11739902 0.120139286 -0.2559432 0.06775491
0.096433505 0.15680964 -0.013225958 -0.20462306 0.10531949 0.0034399792 0.15915078 -0.13766704
0.13353115 -0.19118893 -0.14343226 -0.05775623 -0.16992642 0.02136534 -0.13250276 0.07126617
-0.16311581 -0.14744993 -0.013207629 0.22764148 0.09635638 0.1602715 0.12415415 0.019762313
0.08296787 -0.26888132 -0.07149765 0.14651532 0.06605275 0.1332477 0.031920806 0.10866172
0.047895487 -0.0051193945 -0.22163549 -0.017630115 0.04259898 -0.049049035 0.020079667 -0.18884811
0.24286573 -0.19057103 -0.17469229 0.021273896 -0.06508876 -0.061369356 -0.17427054 0.0990568
-0.24358276 0.19034706 -0.028229615 0.09958853 0.158782 -0.03479332 -0.019825166 -0.12572837
-0.050076474 -0.17721607 0.17341514 0.1357964 0.031878196 -0.057735138 0.17502546 -0.048957296
0.21965335 0.20878027 -0.07018828 0.06728493 0.22823225 0.08236355 0.078389674 -0.228839

linear_out.2.bias f4 [64]
00000000: da3b 24bd b58f 463b 31f9 79bd 43d1 5ebd
00000010: 0903 3dbd a5f6 3c3d 7876 7fbb c7a9 583d
00000020: 0105 1c3d 6772 b53d 3345 b3bd 300f d13c
00000030: d180 35bd 5a4e a3bc 36ac 8b3d 7670 c6bd
00000040: 8e25 f33c a76e e93c c346 2ebd ff18 513d
00000050: 4743 373b ad79 283d 1d3a 81bc accb c2bd
00000060: e22d 5a3d e33a 2fba 4bed 813d c9f7 8ebc
00000070: b262 683b 7133 12be 3868 b43d 005d a5bd
00000080: e102 bfbc f445 8ebd b15d 563e dc92 57bd
00000090: 17b9 0bbb 02cf 72bd 5df2 29bd 5c92 163a
000000a0: dea2 d03a 3397 023d 270c 253d f180 943d
000000b0: 2eb0 2ebc a007 63bd 8be0 8c3a 1d1f 953d
000000c0: 66f4 773b b2b9 30bd a01c 5c3d f7e3 40bd
000000d0: 7a4a 40bc 4ca2 ab3c 7c96 61bd b455 f8bc
000000e0: 77b5 21bd 0867 3abe 65d6 e13c 5b6f d63c
000000f0: 3b1d 633d f6d1 813d d1f8 813d f544 9cbc
-0.04009614 0.0030298058 -0.061028663 -0.054398786 -0.046145473 0.046133656 -0.0038980525 0.052896287
0.03809071 0.08859711 -0.08753433 0.025519937 -0.044312302 -0.019934822 0.06819956 -0.09689419
0.029680993 0.028495146 -0.042547952 0.05104923 0.0027963684 0.041131664 -0.01577478 -0.095115036
0.053266414 -0.0006684495 0.06344088 -0.017452138 0.0035459218 -0.14277436 0.08808941 -0.08074379
-0.023316802 -0.06946936 0.20934178 -0.05263029 -0.002132004 -0.05927945 -0.0414909 0.0005743855
0.0015917679 0.031882476 0.040294793 0.07251156 -0.010662122 -0.055427194 0.0010748071 0.07281325
0.0037834882 -0.043145843 0.053738236 -0.047092404 -0.011736507 0.020951413 -0.055075154 -0.030314304
-0.0394797 -0.18203366 0.027568052 0.026176145 0.0554478 0.06338875 0.06346286 -0.01907585

linear_out.4.weight f4 [64, 64]
00000000: c91e 203e bb00 55be 0a25 3cbb ce55 edbd
00000010: cd6a 5a3c b30a e33d ebe0 dabd 7387 25be
00000020: 1999 2a3e 55b3 86bd 7e57 60bd de51 1cbe
00000030: 26f6 46be 70e6 563e 98b2 2dbe 76a0 10be
00000040: bc76 f6bd 51f1 c9bd 221e 01be 0a38 24be
00000050: d3bb 5e3e 7eb0 763e 292a 33bd e341 a83d
00000060: 4c03 2bbe ba80 653c aefe 4dbd 7272 fb3d
00000070: 82b4 463e 21f9 1e3e 93ba 873d 70cb edbd
00000080: a28a 3bbe f75f 5c3d c8e0 273e 25bc cabd
00000090: 56f7 463e 50a0 e8bc ce99 a13d 7e3a c73d
000000a0: 76e3 6b3d a534 0e3e 9604 0b3e 4179 863e
000000b0: c37f 75bd a7d3 783e c06a 763e ac58 e13d
000000c0: a65a 573e 068e 69be 5ad7 383e 0272 5abd
000000d0: eef1 92bd 6faf 33be d3b4 5c3e 37ef 433b
000000e0: 86cc 12be 3fd0 a7bd 6f48 473e 7e1e 463d
000000f0: 677a 363d e8ce 04be 522c ad3d 1009 77bd
00000100: efdf 273e cfa2 573e 8ffe 6a3e f0a4 4c3e
00000110: 5f69 aabd 67a8 46be 7eed 373e 1124 073e
00000120: c9ad 0abe 2555 4d3e 3c29 1d3e b5b1 2abe
00000130: 4e18 dabb 6432 e33b 035a 16be 4704 2c3e
00000140: 74c9 eabd e4c7 3e3e 58f6 5b3e e0e0 42be
00000150: c168 d7bd d87d 133d 1168 e83d 90c3 843d
00000160: 7269 cbbd 28e2 2a3e cca7 8d3e 2f27 43bd
00000170: 5ce5 c8bd be5e 953d 1c7a 503e 915d 173e
00000180: 80cc 353e 6996 f2bd 9b2b f83d 5c8b e73d
00000190: b6dd 273e eae7 673e 38e2 db3d 5c7e f63d
000001a0: 69e5 49bd 0613 2dbe 50aa d43d 73b8 613e
000001b0: b850 cfbd c9f9 43be cd71 adbd 6206 343e
000001c0: e9e7 3fbe 88e2 bd3c 4731 da3c ddc4 1e3e
000001d0: 1ff5 c0bd 6acb 58be ab13 c83d 15a1 093e
000001e0: 3458 7c3e dc1f f6bc f997 c4bd bad6 863e
000001f0: d78f 673d 5620 723d 77a9 85bc db43 eebc
00000200: f31b 41bd 1722 17be 25b6 0d3a 871b 8fbd
00000210: 5ae4 5bbd f21b 1e3e 1242 413e 9f97 e23d
00000220: 020c d03d 77cb 323e 0bd5 7c3d 7974 6cbd
00000230: a4af 1d3e ac33 1c3d f984 2f3c ea2c 9a3d
00000240: 1c16 413d dfa2 3f3e dbf4 bcbd 604f fdbc
00000250: 021e babd 1d9c 0c3e 4684 053d a0f0 903d
00000260: e4f4 b53d 654c 9ebc deed 4c3d 4dce 463e
00000270: 0393 793b a07c 0e3e ace3 5e3e 47a6 203d
00000280: ffc5 3ebe 4ac0 ad3d f6c5 243e 0bd6 8a3d
00000290: 707d 0dbe 1dc8 923d 09f6 243d 8a3e 9abd
000002a0: f68d 12be a766 cabd 6ef1 333e a472 d3bd
000002b0: 4cbc 55bd 6006 52be 1337 d13c a898 2c3e
000002c0: 0bcb e53d e108 14be 606f f73d 6c62 a4bb
000002d0: 8c09 aa3c 447a d53d 8b13 23be 2d2c a23c
000002e0: 247f ffbd 7ac0 25be 7360 77bd c643 3ebd
000002f0: 11c9 de3c 09ee fa3c 32e3 28bd 82b9 ddbd
00000300: f543 c03d 4ebd d33d 1445 7cbd 92a3 2cbe
00000310: 5fe6 6fbd 9210 9fbd 1a29 503e cd81 653d
00000320: cd66 923e 0e0f 293e e7da 5abe 0cb8 5c3e
00000330: 0484 9a3d c091 0dbd a0c9 b73d 17b3 083e
00000340: c9a5 523d 4a79 d7bd 484b 7f3e 0c07 cf3d
00000350: f8c2 0cbe 707b 543e 3a14 cebd b394 67bd
00000360: 296b 25bd 1438 46be 9571 ddbb 7ec7 3e3e
00000370: 18b2 19be b907 3fbe 7c22 a2bd 3ab4 41be
00000380: 30b1 5abe 0bf1 51bd 2179 a9bd b572 903d
00000390: 55d5 4fbd 14a9 4c3c f3d2 043e 73d1 1ebe
000003a0: b4a1 07be 283c e63d 86f7 783e d886 bc3e
000003b0: c5ae d13d e89a 533e 186f 99bd 6b60 393e
000003c0: 235b 9a3c 40cd 27be 1265 813e de81 9f3e
000003d0: b97d 7bbc f442 76be db20 af3d fe48 8b3d
000003e0: b66b 0ebe d0ba 14be 23e9 1f3e bef1 e53d
000003f0: e8ee 3c3e e458 d83d 2762 913d 305e 4dbe
0.15636744 -0.2080106 -0.00287086 -0.115886316 0.013331127 0.11086025 -0.10687431 -0.16164951
0.16659965 -0.065771736 -0.05477094 -0.15265605 -0.19429836 0.20986342 -0.1696266 -0.14123711
-0.120343655 -0.098604806 -0.12609151 -0.16037002 0.21751337 0.24090764 -0.04374138 0.08215692
-0.16700476 0.014007742 -0.05029171 0.12277688 0.19404796 0.15524723 0.06627383 -0.11611068
-0.18314603 0.053802457 0.16394341 -0.09899167 0.19430289 -0.028396755 0.07890664 0.097279534
0.05758997 0.1388727 0.13575968 0.26264384 -0.059936296 0.24299489 0.2406416 0.11003241
0.21030673 -0.22808084 0.180509 -0.053331383 -0.07175051 -0.17547391 0.21553354 0.0029897222
-0.14335832 -0.08194017 0.19461225 0.048368923 0.044550326 -0.12969553 0.08455719 -0.060311377
0.16394018 0.210582 0.22948669 0.19984794 -0.08320879 -0.19400178 0.1796169 0.13197352
-0.13542856 0.20052011 0.15347761 -0.16669352 -0.0066557294 0.0069334973 -0.14682774 0.16798507
-0.114642054 0.1863094 0.21480691 -0.19031096 -0.10518027 0.036008686 0.11347974 0.06482613
-0.099322215 0.16687834 0.2766708 -0.04764479 -0.09809372 0.07293461 0.20359081 0.14781787
0.17753792 -0.11845095 0.12117692 0.113058776 0.1639317 0.22647062 0.10736507 0.1203582
-0.04929105 -0.16901788 0.10384047 0.22043018 -0.10122818 -0.19138254 -0.084689714 0.1758056
-0.1874081 0.023179308 0.026634825 0.15504785 -0.09421753 -0.21171346 0.09769376 0.13440354
0.24643022 -0.030044489 -0.09599299 0.26335698 0.05653366 0.05911287 -0.016316159 -0.02908509
-0.047145795 -0.14759098 0.0005405865 -0.06987672 -0.05368457 0.15440348 0.1887286 0.11064076
0.1015854 0.17460428 0.06172661 -0.057728264 0.15399033 0.038135216 0.0107128555 0.07528098
0.047140226 0.18714474 -0.0922639 -0.030921638 -0.09087755 0.13731427 0.03259685 0.070771456
0.088846 -0.019323537 0.050031535 0.19414635 0.003808201 0.13914728 0.21766537 0.039221074
-0.18630217 0.08483942 0.16091141 0.06779107 -0.13817382 0.07167075 0.0402737 -0.0753146
-0.14311966 -0.09882861 0.17572567 -0.103246 -0.052181527 -0.20510244 0.025538957 0.16855109
0.11220368 -0.14456512 0.1208179 -0.0050166156 0.020756505 0.10423711 -0.15925424 0.019796455
-0.12475422 -0.16186705 -0.060394716 -0.046451353 0.027195485 0.030631082 -0.041232295 -0.108263984
0.09387962 0.103388414 -0.061589316 -0.16859272 -0.05856931 -0.077668324 0.20328179 0.05603199
0.28594056 0.16509649 -0.21372567 0.21554583 0.07544711 -0.034562826 0.08974004 0.13349567
0.051427636 -0.10521181 0.24931061 0.10108766 -0.1374625 0.20750213 -0.10062452 -0.056538295
-0.0403854 -0.1935733 -0.006757925 0.18630788 -0.15009344 -0.1865529 -0.079167336 -0.18916407
-0.21356654 -0.051255267 -0.08275057 0.07053129 -0.05074056 0.012491483 0.12971096 -0.15509586
-0.13245279 0.11241943 0.24313173 0.36821628 0.10238413 0.20664561 -0.074918926 0.18103187
0.018842285 -0.1638689 0.25272423 0.31153768 -0.015349799 -0.24048978 0.085511886 0.068010315
-0.13908276 -0.14524388 0.15616278 0.11227749 0.1845051 0.105638295 0.07098799 -0.20055461

linear_out.4.bias f4 [64]
00000000: 64f8 013d 72c1 203c d9ca 7f3d 1a41 463d
00000010: 89fe 973d 1a30 d4bd 954b b73d 659b b93a
00000020: fadc 2e3d da3e f33d fd53 893b 0c01 78bd
00000030: a09b 603d a9d9 1cbd d686 673b 6693 29bd
00000040: 236d c23c 7a6d 7e3c 41f4 0ebd 593d 453d
00000050: 21ca 363d dab0 f03c ebec 0fbc fca5 f43b
00000060: 674c 233d a04f f2bc 397b 7e3c 8b61 19bd
00000070: b86d 8dbd bd12 483d b5bf d03c c90f 313a
00000080: b08f 55bc 8f78 a6ba dbfd b43d 4361 3ebb
00000090: 2ab6 2fbd d57d d7bd 51a6 1e3b e595 48bd
000000a0: e43d 1abc 6d6f 313d 4989 1b3e a234 eb3c
000000b0: 4d32 b4bd 59f6 193d 2c95 f439 667f 1a3c
000000c0: 73b2 923d ccdc 9fbd 2216 39bd f6d3 07bc
000000d0: b214 5dba 69c3 013c caff 5e3d 5204 e5bd
000000e0: e49d 9cbd 1a14 88bd fdcc 17be 02b0 02bc
000000f0: ea96 48bd 3d47 93bd 87d8 19bd 90c2 473c
0.031731024 0.009811746 0.06244931 0.04840193 0.074215956 -0.10360737 0.08949963 0.0014160691
0.04269121 0.11877222 0.0041909204 -0.060547873 0.054835916 -0.038293514 0.0035328171 -0.041400336
0.023733681 0.015529031 -0.034900907 0.04815421 0.04462636 0.029381204 -0.008784513 0.007466076
0.039867785 -0.029578984 0.015532308 -0.03744654 -0.06905693 0.048845995 0.025482038 0.00067543663
-0.013034746 -0.0012700724 0.088374816 -0.0029049672 -0.042898335 -0.105220474 0.002420802 -0.048971076
-0.00941417 0.043319155 0.15189089 0.02871162 -0.087986566 0.03758845 0.00046650448 0.009429788
0.07162943 -0.078057855 -0.045187123 -0.0082902815 -0.0008433565 0.007920125 0.05444316 -0.11182465
-0.07647303 -0.06644459 -0.1482429 -0.007976534 -0.048972048 -0.07191322 -0.037560012 0.012192383

linear_out.6.0.weight f4 [64, 64]
00000000: f51a 003e d5ef 27be 8847 16be fa30 97be
00000010: d056 9bbd 36d7 a3bc 4f76 3cbe fcdc a8bd
00000020: e8ac 173e 5e9d bfba e617 e93d 80d2 0abc
00000030: be9e 203e a1e5 20be 56ed 513e 2d39 1abd
00000040: ebb9 fcbd fc6c c8bd ddba 37bd 52e3 9fbd
00000050: 9135 1e3e d484 013e 422b b1bd 6f18 efbd
00000060: 8949 d33d aa16 453e 24e0 8fbd 9322 c8bd
00000070: c25b aabc 658e 3a3e 794d 693e 50e2 dabd
00000080: f558 6e3d 3651 3b3d 5f07 823d 126c aebd
00000090: f446 b7bd 7f7b ac3d 0b93 f6bd 1024 f5bd
000000a0: 47c0 5a3e 88d8 26be d198 0ebe c0af 88bd
000000b0: 1a77 9fbc c8ec 71be dbdc 20be 6423 323e
000000c0: d45c d03d e23a 81ba 5729 6fbc 75dc e93d
000000d0: e37a 40bd 46f6 babd f77d ef3d bc94 573e
000000e0: 4a14 0f3d 438b 33be 2ba8 3dbd eae1 a73c
000000f0: ca30 4e3e 8b17 57be 1d2b 073e 912b eb3d
00000100: ce4b a63e c62e 49be bb92 993d 6867 b9bc
00000110: 5b48 90be ec2d f93d 34a4 13ba 7636 9f3e
00000120: 259d 1a3e a32c ebbd f385 093e 52c1 82bd
00000130: 6c1c 123d 1eae b8bb 3c88 623e bd70 4a3e
00000140: a55f 513e a081 4a3e c234 0e3e c3f8 98be
00000150: 5c93 acbd 0020 dc3d 6027 b43d 5b12 ad3e
00000160: 58f1 2a3c 38ca 3f3e 8cda 193e b686 9f3e
00000170: 5d1b 643e d05c aa3e acf0 83bd 3bd8 d13d
00000180: acad d93d 8bec b8bd 95cd 963e 6b6e 833e
00000190: 7b5c 27bd 0e82 4d3e a2ce 55be 3791 a63c
000001a0: 02a9 333d 1e41 b9be da21 713e 540a a03d
000001b0: 12d9 17bc da19 40be 9027 4a3e 9d30 3b3e
000001c0: b104 10bd 5a39 77be a21a 24bc bb04 02be
000001d0: 0a52 d5bd df74 563e e50a 833e 5deb 9fbd
000001e0: 79c2 3f3d 00bd e6bd d516 12be bcaf 95bd
000001f0: 9650 763e eed2 e2be 0873 153e 4b64 1bbe
00000200: e8c3 443d aa48 203d f85a 74bb d3c4 f13d
00000210: ea84 253d 95a0 e8bd 524d 26be 3cd7 883d
00000220: c5ed 77bd 8972 cabd 022f 063d ef58 61be
00000230: adc4 2dbe e147 20be 8dd4 2c3e 39d9 0f3e
00000240: 2e4a 68bd d7eb 0ebe 3117 5a3d e442 a6ba
00000250: 8cbf f63d 7cce bf3d 0134 69be 042b 87be
00000260: 8a82 debc afdc 2ebe 185d 213d 24ec ecbd
00000270: ed55 a5bd 288b f83d e1bb 7bbd 4e9b fdbd
00000280: 20ec 4ebe 5bd2 0fbe 21d2 da3d a9cd b1bd
00000290: a386 4c3d 7d2a 33be b86d b7bd 1281 0b3c
000002a0: 9139 093d 6874 403e d3ae 68bd d2f0 98bd
000002b0: dca8 fe3d 9555 ba3d 7ae3 003e cc73 203e
000002c0: a968 3c3e e737 803e 9a9f 1d3e bd36 b93c
000002d0: 41d5 ae3c ef4f 433d 2a1a 18be 44ea e73d
000002e0: e260 e93d dfc8 41be d177 253e 87e3 b53d
000002f0: 6f15 fdba 1bfb 1bbd f8ca ad3c 1a7d 433b
00000300: 812c ca3d fc35 413e af7e 4a3d ca68 4e3e
00000310: 785a 15be 3527 23be 3101 353e 5b7b 393e
00000320: b683 d2bd 3346 35be a626 2f3e 0c89 f83d
00000330: 1e79 d2bd 6dff 11be da3c fc3d cb66 3dbe
00000340: 9290 1e3e a4f0 63bc 59e4 14be efec a83c
00000350: 3247 07bc 340e dcbd 6392 64be 194f d7bd
00000360: 6399 e5bd 3823 063e 357a c7bc 132c 5bbe
00000370: 4b47 94bd d729 1b3e 2260 c93d 6a09 d33c
00000380: 67b0 1cbe 9b99 26bd 8943 0dbe afdd 20be
00000390: cf49 88bc 55be c03d 5d70 e4bc 78b4 15be
000003a0: 8604 1dbe b80f 38be a61a 1f3e eabc 1b3b
000003b0: f237 033e c14f 22be c6ea 373e db46 0cbd
000003c0: 2e60 41bd 18c4 3e3d 9e7c 393e 573c 0bbe
000003d0: 5f15 ebbd e6b5 14be afbf 423e def8 84bc
000003e0: fb93 5ebe 8574 98bd 9130 023e db4b f1bd
000003f0: 2bf8 5bbe 2d4c 2bbe a88a 9ebd 903c 3b3e
0.12510283 -0.16400082 -0.14675725 -0.29529554 -0.075849175 -0.020000082 -0.18404506 -0.082452744
0.14812052 -0.0014619043 0.113815114 -0.008473039 0.15685555 -0.15712596 0.20500693 -0.037652183
-0.123401485 -0.09786412 -0.04485594 -0.0780703 0.15450121 0.12648326 -0.08650829 -0.11674582
0.1031676 0.19246927 -0.07025173 -0.097722195 -0.020795707 0.18218382 0.2278346 -0.10687697
0.058190305 0.045731746 0.06349062 -0.085167065 -0.0894908 0.084219925 -0.12039765 -0.11969769
0.2136241 -0.16293538 -0.13925482 -0.06674147 -0.019465972 -0.23625481 -0.1570925 0.17396313
0.101739556 -0.0009859467 -0.0145972585 0.11419002 -0.046992194 -0.09129004 0.11693948 0.21052831
0.03493146 -0.17533593 -0.046302956 0.020493466 0.20135799 -0.21005075 0.1320004 0.11482919
0.3247971 -0.19646749 0.0749869 -0.022632316 -0.28180203 0.12166962 -0.0005632073 0.31096238
0.15099008 -0.11483123 0.13430004 -0.06384529 0.035671636 -0.0056359908 0.22122282 0.19769569
0.20446642 0.1977601 0.13887313 -0.2987729 -0.08426544 0.10748291 0.08796573 0.33803067
0.010433517 0.18729484 0.15024775 0.31157464 0.22276063 0.33273935 -0.06442389 0.10246321
0.106288284 -0.09029492 0.29453722 0.2567018 -0.04085968 0.20069143 -0.20879605 0.020332916
0.04386235 -0.36182493 0.2354807 0.0781447 -0.009268062 -0.18759862 0.19741654 0.18280263
-0.035160724 -0.24142972 -0.010016115 -0.12697117 -0.10416038 0.2094302 0.2559425 -0.07808564
0.046816323 -0.11266518 -0.14266522 -0.07308909 0.24054179 -0.44301552 0.14594662 -0.15174977
0.048038393 0.039131798 -0.0037285667 0.11805119 0.04040996 -0.113587536 -0.16240433 0.06681678
-0.06052949 -0.09885127 0.032759674 -0.22006582 -0.16969557 -0.1565242 0.16877957 0.14047708
-0.05671137 -0.13957153 0.053244773 -0.001268473 0.120482534 0.09365556 -0.22773744 -0.26400006
-0.027161855 -0.17076372 0.03939542 -0.11568478 -0.0807303 0.12135917 -0.061458472 -0.12383138
-0.20207262 -0.14045088 0.1068461 -0.08681805 0.049933087 -0.17496677 -0.08956474 0.0085146595
0.033502165 0.18794405 -0.05680735 -0.07467808 0.12434551 0.09098355 0.12586775 0.15669173
0.183993 0.2504265 0.15392914 0.022609109 0.021341922 0.047683652 -0.14853731 0.113239795
0.11395432 -0.18924282 0.16158988 0.08881288 -0.0019308756 -0.03808127 0.021214947 0.0029829205
0.0987177 0.1886825 0.04943722 0.20157161 -0.14585292 -0.15932925 0.17676236 0.18113463
-0.10279028 -0.1770256 0.17104587 0.121355146 -0.102770075 -0.14257593 0.12316294 -0.18496244
0.15484837 -0.013912354 -0.14540233 0.020620791 -0.00825672 -0.107448965 -0.22321467 -0.105131336
-0.11210897 0.13099372 -0.024350265 -0.21403532 -0.072401606 0.1515268 0.09832789 0.025761325
-0.15301667 -0.040673833 -0.13795294 -0.15709566 -0.016636757 0.09411303 -0.02788561 -0.14619625
-0.15333757 -0.17974746 0.1553751 0.0023763725 0.1281431 -0.15850736 0.17960653 -0.03424726
-0.047210865 0.04657373 0.18113944 -0.13597237 -0.114786856 -0.14522514 0.19018434 -0.01623195
-0.21736138 -0.07444099 0.12713839 -0.117820464 -0.21481387 -0.16728278 -0.0774129 0.18284822

linear_out.6.0.bias f4 [64]
00000000: 77c7 263d 28ce bf3d 5a28 39bd 87c1 65bb
00000010: 999e 7dbc 00c5 4b3c 16fb bd3c 4a5e 4abd
00000020: 64cc f23a a642 653c 0ec5 613d 774d 62bd
00000030: 1649 383c 721a ffba 4a57 443c 3307 0a3d
00000040: 5b27 97bb 1c7e 743c b8d3 01bb e4cc 6f3c
00000050: 6f8c 703c c041 16bb 4e7f c93c 41c7 e5bc
00000060: 9140 04bd 0462 bc3c 4206 193c 7c41 893c
00000070: 161b 113c b024 00bb b501 633b 2f80 41bc
00000080: 87c3 2abd ba84 6c3d adcc 52bd e4aa 5a3d
00000090: 71b4 70bd 8135 543b b37b 58bc b396 a3bd
000000a0: e3cb dd3c fb2a 68ba 68b2 db3b e49a a43c
000000b0: 6140 e9b9 26a6 05ba 97e0 553b 2237 c03c
000000c0: a5e5 903c 0705 27bc 6dbc 83bd 65ac 84bb
000000d0: 2d4d a23d 20c1 86bd 8557 d6bb 13ad 6bbc
000000e0: bbc8 153c 0516 01bc 33e3 b4bd a1db 193c
000000f0: 0e8d 7bbc 843d 643c 39a0 c4b9 f643 c53b
0.04071757 0.09365493 -0.045204498 -0.0035057978 -0.015479707 0.012437105 0.023191016 -0.049406327
0.0018524048 0.013992941 0.055119567 -0.055249657 0.011247894 -0.0019462837 0.011983702 0.033698272
-0.004612846 0.014922645 -0.0019810032 0.014636252 0.0146819195 -0.0022927374 0.024596836 -0.028049113
-0.032288138 0.022995956 0.009339871 0.016754858 0.008856555 -0.0019553117 0.0034638469 -0.0118103465
-0.041690376 0.057743765 -0.051464725 0.05338563 -0.058765832 0.0032380524 -0.013213086 -0.07987728
0.02707476 -0.0008856502 0.0067046173 0.020093389 -0.0004448919 -0.00050983054 0.0032635087 0.02346379
0.017687628 -0.01019407 -0.06432424 -0.0040488713 0.07924876 -0.065798044 -0.006541195 -0.014384526
0.009142096 -0.007878785 -0.08832397 0.0093907425 -0.015353454 0.013930682 -0.00037503408 0.0060200645

linear_out.6.2.weight f4 [1, 64]
00000000: 152c c63c 4a79 af3e df1b 903d 25c9 2abe
00000010: f97c 2bbe 0863 2fbe caeb d43e c999 dbbe
00000020: 181b 923e 1fd8 2abe 80e1 80be 5d80 bf3e
00000030: 2215 d73d 315f dfbe 5e4e 243e 91c7 54be
00000040: 218b bdbe d171 083f c7a3 863d abb2 5d3d
00000050: 38fe 8ebe 023f 063e 61fb 2d3e 4c6c dc3d
00000060: 0f38 d23e f33c c8be ac74 c1be 49fa 9a3d
00000070: da56 f6bd be28 2d3c 0a19 613e d9d3 12be
00000080: 0b70 66bd 1a37 b9be 6198 0bbf b2b4 613e
00000090: 509d babe 67bb 883b e05b d2bd d300 acbe
000000a0: 4d31 aebe f754 d6be c7de 553e 5c70 47be
000000b0: 6ff2 dabc 5dfb a6be 2055 e23d 502f 0c3f
000000c0: f8b0 d13e b2cf 473e d165 e0be 9671 e63d
000000d0: 4756 b53e 9983 f6bd cfd2 913e 003d c63e
000000e0: 52e2 b33e 0e47 a13a 29ed 3d3e c1bd 873d
000000f0: b33a 6a3e 20c0 14bd 0658 b53d 71ba 32be
0.024190942 0.34272224 0.07036566 -0.16678293 -0.16746892 -0.17127621 0.41586143 -0.42890766
0.28536296 -0.16684006 -0.25172043 0.3740262 0.10502078 -0.43627313 0.1604552 -0.20779254
-0.3702021 0.5329867 0.06574207 0.05412547 -0.2792833 0.13109973 0.16990425 0.107628435
0.41058394 -0.39109 -0.37784326 0.07567269 -0.12028284 0.010568796 0.21982208 -0.14338626
-0.056259196 -0.36174852 -0.54529387 0.22041586 -0.36448145 0.0041727307 -0.1027143 -0.3359438
-0.3402199 -0.41861698 0.20885764 -0.19476455 -0.02672693 -0.3261365 0.110513926 0.54759693
0.4095533 0.19512823 -0.4382768 0.112521335 0.35417387 -0.12036819 0.28481147 0.38718414
0.35133606 0.0012304501 0.185475 0.066279896 0.22873954 -0.036316037 0.0885468 -0.17453934
