checkpoints/1dreaction_ProPINN_point.pt (torch, 70379 bytes, 16 tensors)

linear_emb.0.weight f4 [8, 2]
00000000: c71d 2cbe a891 b43b 6058 52bf cc77 403f
00000010: db86 3d3f fc21 173f ed9a f5bd 77ea 003f
00000020: 9385 a2be 26b6 0f3f a397 e3be 2b41 34bf
00000030: 987e 4bbe 4f34 383f 76ae fdbe 3e01 21bf
-0.16808234 0.0055105276 -0.821661 0.75182796 0.740339 0.5903623 -0.119924404 0.50357765
-0.31742534 0.5613731 -0.44451627 -0.7041194 -0.1987251 0.71954817 -0.49547166 -0.6289252

linear_emb.0.bias f4 [8]
00000000: 5e7b 2ebc 869b b9bc c915 013e db3b aebb
00000010: 8d1a 15bd 4167 a03d ee27 5dbc 4459 14bc
-0.01064953 -0.022657167 0.12605967 -0.005317194 -0.036402274 0.07832194 -0.0134982895 -0.009054486

linear_emb.2.weight f4 [32, 8]
00000000: be2f c03e a08e 593e 8e63 1f3b 75b4 ffbd
00000010: bb3f f8bd d2be b4bd a0a8 543e a366 e93d
00000020: 6c57 92be 8b04 3dbd 7879 55be 9298 6b3d
00000030: 245d 023e 9654 49bd b0ec a83c 65bd 9b3e
00000040: ca1a ae3e a2fb 95be e2a4 3d3e 030d 8cbe
00000050: aa6d 973e 7875 ab3e 51c7 ca3e e5b9 a33e
00000060: 9c18 07be e248 043c 8550 82be 131c 503e
00000070: 63aa 30be 8334 39be df07 6fbe 289a a43e
00000080: dd3f 9ebe 11db 963e e769 d8be bb06 313e
00000090: 9381 573e 3af2 9bbe 0182 9bbe f5b1 99be
000000a0: c116 3a3e ec6c 9abe ed8a a13e 5e29 8abe
000000b0: 5d66 cabe ab31 aebe 35e3 823e 7c9e aa3d
000000c0: e050 cfbe 0b62 d63d 4d12 babe 69fe 853d
000000d0: d8a7 7dbe 17ab c3be 4b25 af3d 081d 96be
000000e0: 94e4 be3d 3c39 3f3e 9b50 3bbc c404 c23e
000000f0: fe92 e03d 1cb9 a53d adad 953e b8f1 a73e
00000100: 18cb 9bbe ffef 03be b3ca 1bbe ce32 143e
00000110: 2c1a bb3e 3d5d 40be db3f 9cbe 90ce 193e
00000120: b526 e93c b6ca b6bd 4757 e7bd d82f e33c
00000130: d0d9 b9be 233c 84be ff63 9c3e 8d9f c1be
00000140: cfd8 74be 25ab c33e 631f a63d 9f48 8bbe
00000150: d70e 1bbe 5575 2d3d 510f 813e 78e0 e1bd
00000160: e084 8c3e 1869 b13d eaf4 d93d d3d3 8cbd
00000170: a7c9 763e 0bbc a23e 1e20 b0be cca1 2ebd
00000180: 6853 1ebd accb ad3d e900 eb3d a7b0 bb3e
00000190: e3a6 5d3e 61b1 c23d 3fce 663e 0b0d a33d
000001a0: bd8f a03e c473 c83e 6d3a 633b 935d 0c3d
000001b0: 49d7 cabd 20c8 3fbe 48f0 7bbe 09de 543e
000001c0: e01d b63d 9341 813e a032 b1be cf51 8dbe
000001d0: 5228 603e 4aff b0be a907 5bbe 4e66 643e
000001e0: 318b 193e e9a0 5e3d d7fb 213e 3637 c5be
000001f0: 22d8 983e 24b1 a1bd db96 39be 72ae 993e
00000200: 1e57 143e ab9d 8f3c d423 f33c 868e fdbd
00000210: a16f 08be c67c 383e 1eb6 af3e 222c 673e
00000220: 0469 6cbe 8f2a 28be 4c6a 413e 64f5 12be
00000230: f2da ff3b 150c 8fbd 2277 acbe 1eed d83d
00000240: 4d4b 103d 3a10 1ebc a9c6 1b3e f9d1 d9bd
00000250: 4b6e 723e 02b6 9cbb 45cc aebd c783 95be
00000260: b0ef bfbd 9787 4f3e 313b be3d d2ef 9ebe
00000270: 18ac 8ebe 9b8a 613e 9f51 3d3e 360f 703e
00000280: 280b 41be 9e06 af3d 735e 9abe f6b4 c5be
00000290: 83d5 433e ec85 723e 11b4 dc3d b55e a7be
000002a0: fec7 2b3e 6633 a0bd fbce 5abe 9d9c adbd
000002b0: 2361 a13e 6884 e7bd cd49 c0bc 29b4 a5be
000002c0: b559 babe 42de 7c3e 9ada 4c3e 253c 28bc
000002d0: 11fd ac3e b511 f73d 3e68 b1be 865b 24be
000002e0: 8157 8f3e 27da 303e 00c9 b13c 09a4 a13c
000002f0: 1b5e 893e a76f 2c3e b623 8e3e d220 1b3e
00000300: 932f 27be 0980 32be f560 0d3e 3f1f 3b3d
00000310: 36e2 5ebe be6f 6a3e 3984 e4bd 9d5f 3e3e
00000320: d908 80be f72c 94be 1096 4f3e d938 2d3d
00000330: 992d 9a3e 7725 993e a733 86be ae8a 9ebe
00000340: fd34 85bd 6056 cabd 0df8 79bd 94e4 283e
00000350: f5ad 663d 6162 5ebe 7bd5 88be 7b3c a53d
00000360: ea47 c5bc 96ca 12be 1be5 b2be 040a b0be
00000370: 25cc 9a3e 3351 843e 6727 943d 057e 4b3e
00000380: 4d84 b43d 2445 8e3e a2bf 4cbe 77cd c83e
00000390: 6439 f43d 62ab be3d 18b5 3dbe ae3e 29be
000003a0: eaf2 4c3d 4195 893e c7d7 fd3d 00c2 93be
000003b0: 6d41 b7be 8e50 46bc 2edb 74be 2984 d83e
000003c0: 6d00 723e 6775 2dbe 2d88 883e 5c66 99be
000003d0: c3d1 0d3e c241 dd3c 7750 77be a02d 7dbc
000003e0: 1ad0 663d 44a6 cfbd d348 573e 49cc b8bd
000003f0: a219 5239 1c14 993e 8f73 bfbe a2d4 d93e
0.37536424 0.21245813 0.0024320814 -0.12485591 -0.121215306 -0.088254586 0.2076745 0.113965295
-0.28582323 -0.04614691 -0.20847118 0.05751855 0.12730843 -0.049152933 0.020620674 0.30417934
0.34004813 -0.29293543 0.18519929 -0.27353677 0.29575855 0.3348806 0.3960519 0.31977764
-0.13192981 0.008074017 -0.25452057 0.2032321 -0.17252497 -0.18086438 -0.23342846 0.32148862
-0.309081 0.2946401 -0.42268297 0.17287724 0.21045522 -0.30458242 -0.30372623 -0.30018583
0.18172742 -0.30161226 0.31551304 -0.26984686 -0.39531222 -0.3402227 0.2556397 0.0833101
-0.4049139 0.10467919 -0.36342087 0.065426655 -0.24771059 -0.3821647 0.08552035 -0.29319024
0.093209416 0.18674177 -0.011432792 0.3789426 0.109655365 0.080919474 0.29234067 0.32801604
-0.30428386 -0.1288452 -0.15214042 0.14472505 0.36543405 -0.18785568 -0.30517468 0.15020204
0.02846084 -0.08925383 -0.11295944 0.027732775 -0.3629899 -0.2582713 0.3054504 -0.3781704
-0.23910831 0.3821651 0.08111455 -0.27203843 -0.1514238 0.042348225 0.25206998 -0.11029142
0.27445126 0.08662623 0.10642417 -0.0687634 0.24100362 0.3178409 -0.34399503 -0.04263477
-0.03865376 0.08486113 0.11474783 0.36658213 0.21645693 0.095064886 0.22539614 0.07961472
0.31359664 0.39150822 0.0034672276 0.034268927 -0.09904344 -0.18728685 -0.24603379 0.20787825
0.08892417 0.25245342 -0.34608936 -0.27601478 0.21890381 -0.3456977 -0.21389641 0.22304651
0.14994504 0.054352675 0.15818726 -0.38518685 0.29852396 -0.07895115 -0.18123953 0.30015904
0.14486358 0.017531237 0.02968017 -0.123807 -0.13323833 0.18016347 0.34318632 0.22575429
-0.23086935 -0.16422485 0.18888205 -0.14351422 0.0078080827 -0.06984726 -0.3368464 0.105921015
0.035228062 -0.009647423 0.15212502 -0.10635752 0.23674886 -0.004782439 -0.08535055 -0.292021
-0.09371889 0.20266567 0.092886336 -0.31042343 -0.27865672 0.2202553 0.18488167 0.23443303
-0.18851912 0.08546184 -0.30150184 -0.38614625 0.19124417 0.236839 0.107765324 -0.32689443
0.1677551 -0.078223035 -0.2136802 -0.08477137 0.31519422 -0.11304551 -0.023472691 -0.32364014
-0.36396566 0.2469416 0.20005265 -0.010268246 0.33786824 0.12063924 -0.34649843 -0.16050538
0.27996448 0.17270719 0.02170229 0.019731538 0.2682961 0.16839467 0.2776162 0.15149239
-0.16326742 -0.17431654 0.13806517 0.045684095 -0.2176598 0.22894189 -0.11158032 0.18591161
-0.2500675 -0.28940555 0.20272088 0.042290542 0.30112913 0.29911396 -0.26211283 -0.3096518
-0.06504247 -0.09879756 -0.061027575 0.16493446 0.056318242 -0.21717216 -0.26725373 0.08068176
-0.024082143 -0.14335093 -0.3494042 -0.3438264 0.30233875 0.258432 0.07234078 0.19872291
0.08814297 0.27787125 -0.19994977 0.39219257 0.11925009 0.093100324 -0.18526113 -0.16527817
0.05003635 0.26871684 0.12394672 -0.28858948 -0.35792103 -0.012104167 -0.23911735 0.4228833
0.23632975 -0.16939317 0.26666394 -0.29960907 0.13849549 0.027008895 -0.24151789 -0.015452772
0.056350805 -0.101391345 0.21023874 -0.09023339 0.0002003671 0.29898155 -0.37392852 0.42545038

linear_emb.2.bias f4 [32]
00000000: 01c3 b63c 6a8f 233d 72f3 b4bc f361 e73c
00000010: dd4a f5bc cda4 ceba ec2b c4bc 0fc9 3a3c
00000020: 853a beba 810d a0b8 e4e9 143c cfcd 823b
00000030: 031b e1bb e298 1c3b e9a6 8ebc 6625 b5ba
00000040: ebcd f83b 300b ed3b d59a 7d3c d986 2f3c
00000050: 892f 4a3c b811 f3bb cf62 b93c 7db9 2a3d
00000060: f444 5d3d 584e 943c 198a b63c d6a6 af3c
00000070: 48f4 e23c 7fa9 c6bc eaba ac3b 5dbf 163c
0.022309782 0.039931692 -0.02208874 0.028244948 -0.029942924 -0.0015765667 -0.023946725 0.011400475
-0.001451329 -7.63191e-05 0.009088967 0.0039918195 -0.006869675 0.0023894836 -0.017413573 -0.001382035
0.0075929067 0.0072339997 0.015478809 0.0107133025 0.012340435 -0.0074178837 0.022630123 0.0416808
0.054020837 0.018103763 0.022282647 0.021441858 0.027704373 -0.024250744 0.0052713053 0.009200898

multiregion_mixer.0.weight f4 [8, 4]
00000000: c3f5 26bf d4f5 d33e d82d 0b3f fb45 ee3e
00000010: 7904 743e 0b53 40be d495 42be a0bb ca3d
00000020: 4c40 abbe fb10 a53e 36ab 2dbf 2a51 cb3e
00000030: fe0c 17bf 6cfb f73e d981 25bf 3805 3fbf
00000040: 52af 333f 9434 213f ede3 e0be becc 843e
00000050: e46d 09be 476b a43e 156f 76be cc16 c8be
00000060: e251 6cbe 39b9 03bf d5e1 e5bd 6f31 94be
00000070: 46da 3d3e c0fa d43e 7cdb de3e 9b6e 09bf
-0.6521875 0.4139849 0.54366827 0.46537766 0.23829831 -0.18781678 -0.19002467 0.09899068
-0.33447492 0.32239518 -0.6783937 0.3971036 -0.590042 0.48434007 -0.64651257 -0.7461734
0.7018939 0.6297085 -0.43923894 0.25937456 -0.13420826 0.32113096 -0.24065812 -0.39079893
-0.23078111 -0.514545 -0.11224715 -0.28943965 0.18540296 0.41597557 0.43526828 -0.53684396

multiregion_mixer.0.bias f4 [8]
00000000: 76b8 863b d418 6d3c f9fb 613c ffe9 a43d
00000010: 3be4 ae3b e946 e13b c1f6 e7bc 6f30 723b
0.004111345 0.0144712515 0.013792985 0.08052444 0.005337266 0.006874908 -0.028315904 0.0036955138

multiregion_mixer.2.weight f4 [1, 8]
00000000: 8075 ef3e dbbe 1abf 5b60 eebe 88f9 043f
00000010: 0c8a b33e cc1c bc3e d4ce b7be c41f 263f
0.46769333 -0.6044747 -0.46557888 0.51943254 0.3506626 0.3674072 -0.35899985 0.6489222

linear_out.0.weight f4 [64, 32]
00000000: 569a 733e e049 2f3e 176e 5dbe 956a 1cbe
00000010: 0962 6b3e 6220 58be eb4d 54bc e90e 253e
00000020: ff1a c3bb c37e 88bd c683 3bbe 5b3a 4c3e
00000030: 0eb4 bebd ce44 93ba b124 fbbd 0515 e53d
00000040: 5d34 683e 46b8 05be ff99 453e 54c9 c9bd
00000050: f7de 6fbe 8be3 fabd f74f a7bd bd0f 9c3c
00000060: d9ff 1f3e 3bb5 69bd 9092 a73d 616f 553e
00000070: 7b53 753e d95d cdbd a8e1 aebd fc45 ccbd
00000080: ce8b e53c 1319 6b3e 66d4 0d3d 581c 1ebc
00000090: cde3 bc3c b77e 44be e01e 4fbe 15f6 103e
000000a0: e68b 0d3e 7ffc 1f3e 21a4 3abe 14fa edbd
000000b0: a28c e53d f69c 25be 292c cc3d 3f43 80bd
000000c0: a1ad 543d 19f2 19be 21fa 91bd 3e45 843c
000000d0: 435f 3abe 9b1a 32be f395 edbd f87b 173e
000000e0: 1ccd f2bb 741c 44bd 73f6 863b f88e 2bbd
000000f0: 4658 59be f21c 1fbd 6c22 77be d771 533e
00000100: f595 1bbe febf 593e fba7 8abe fc55 17be
00000110: 9463 86be a632 2b3e e12c 96bd f0c1 7d3d
00000120: 8951 79be 5733 39be 2aab 4fbe 966f 603d
00000130: f219 df3d 2ddf df3c 55c3 66be 3b9c 513e
00000140: 170b 6abe 5018 323e 614e 8f3c 9d9d 1f3e
00000150: 102c cd3d 6110 74be 9faf 1a3e 8535 22be
00000160: 6ac4 19be be12 3ebe 82dd 08be 18de 543e
00000170: 433a 9f3d b331 ffbd 8458 2e3e e75c 623e
00000180: daff 0f3c b7a4 c9bd 5420 1d3e d4f6 8fbb
00000190: c461 05be dcac da3d a54e 173d d780 2e3e
000001a0: ce30 2abd 50a1 163e faf9 163e b204 553d
000001b0: 92b9 95bd 1f98 60bd 4f54 a23d 604b 0f3e
000001c0: e545 803e 86ed 543e a3d6 18be 72fc 0cbe
000001d0: 996d c3bd ecfe 5f3e 9583 50bd 12d8 493c
000001e0: 9ba8 a2bd 408f f4bd 38fa 92bd df0b 5d3e
000001f0: a9e4 473e 5783 323e c7f4 6dbd 0e2d 09be
00000200: 4380 7c3e f63c 2c3e 75a5 eebc b1ea 69be
00000210: 8348 01be 2ccf 883d 4524 2a3e 3643 c73c
00000220: d0ee 453d b647 30bc 58f2 66be dd87 4ebe
00000230: 131c 0d3d 3c38 76bd 4958 303d fd2a 843e
00000240: 5840 4ebe 8aa1 e23d eca1 ff3d 0055 3c3e
00000250: 5a07 163d affd 2abe 3b23 5d3e c45f b63d
00000260: 2da1 5cbe 18fb 083e 5f5b cd3d 5325 39bd
00000270: 5d03 b53d 0d11 373e 3e15 0cbe 683e 2ebe
00000280: ffa6 7d3e f039 703d 0954 273d 990c 253e
00000290: 7328 82bd bea2 78be d8a1 3e3e b90d 993d
000002a0: b4bc 68be 186b 5cbe ce43 643e 54f0 91bd
000002b0: 9795 cabd 946f db3d 65e5 933d 8609 aabd
000002c0: 1e5c bc3d 998c 763d 78f9 253e 3dbc 2fbe
000002d0: 00a7 23be 7126 163e 4de8 433d ab77 30bd
000002e0: 136d 80bd a662 5ebe 53ef 4b3e 608f f43d
000002f0: eb2f 37be feb1 02be 6020 1c3e c11a 54be
00000300: 3e88 383e fe25 933c 1bdd e43d df3a f4bb
00000310: 57d5 ae3d 1df2 13bd f4b6 7fbe b806 633e
00000320: 8ef0 0f3e 8885 6a3e 5f3c 27bb cf47 573e
00000330: 9c95 2d3e b1be d0bd b528 fc3d 0000 293e
00000340: e649 35bc e8ff 533e f6d8 9f3d 909d 173e
00000350: 9542 37be e0bc 613d 0c78 c33d c7df a83c
00000360: b579 ff3d 89d2 6e3e 0ff6 f53d cee1 6bbe
00000370: e68d 8dbd b3ca 473e fb04 51be 265e 0b3e
00000380: 94b3 283d bb39 a63c e297 7dbd 7d0a 013c
00000390: 9961 25bc 15cc 8abd 0399 583e 8598 ea3d
000003a0: e884 1dbe 05ab 1a3e 7b27 bc3d b819 a6bd
000003b0: 3582 2ebe a861 823e 30e2 cfbc cb57 4cbe
000003c0: 7037 80bd 66cf a23d d920 cc3d b19c 1f3d
000003d0: ba59 7f3e 5a6d 44be 3172 283e 2d4e 21be
000003e0: 7ccd 7f3e 25c7 f23d e4e4 4e3e bac9 833d
000003f0: f5c3 733d 0343 553c e136 03bd ce2d 593e
0.23789343 0.17118025 -0.21624027 -0.15275033 0.22986616 -0.21106103 -0.01295803 0.16118969
-0.005954146 -0.06664803 -0.18311986 0.19944136 -0.093116865 -0.0011235715 -0.12262858 0.1118565
0.22676225 -0.13058576 0.19297026 -0.098528534 -0.23424898 -0.122504316 -0.08169549 0.019050473
0.15624942 -0.0570576 0.081822515 0.20843269 0.23957627 -0.10027666 -0.08539134 -0.09974286
0.028020766 0.22958784 0.034626387 -0.009650312 0.023057843 -0.19188963 -0.20226622 0.14156373
0.13822898 0.15623663 -0.18226673 -0.11619964 0.11208464 -0.16173157 0.099693604 -0.06262826
0.051923398 -0.15033759 -0.071277864 0.016146298 -0.18200402 -0.17392962 -0.11600866 0.14793384
-0.007409705 -0.047878698 0.0041187345 -0.041884392 -0.2122508 -0.038845964 -0.24134225 0.20648895
-0.15193923 0.21264645 -0.27081284 -0.14778894 -0.26247847 0.1671854 -0.07332779 0.06195253
-0.2434751 -0.18085991 -0.20280138 0.054793917 0.108936206 0.027328098 -0.22535451 0.20469753
-0.22855793 0.17392087 0.017493429 0.15587468 0.1001817 -0.23834373 0.15106057 -0.15840729
-0.15016332 -0.18561837 -0.13365749 0.20787847 0.077747844 -0.12460651 0.17025954 0.22105752
0.008789027 -0.0984587 0.15344363 -0.004393438 -0.13025576 0.106775016 0.036940236 0.17041336
-0.04155045 0.14709973 0.14743796 0.05200643 -0.07310785 -0.054832574 0.07926237 0.13993597
0.25053325 0.20793733 -0.14925627 -0.13768175 -0.095423885 0.21874589 -0.050906736 0.012319582
-0.07942315 -0.11941385 -0.07176632 0.2158656 0.1952082 0.17432915 -0.058094766 -0.13396093
0.24658303 0.1682013 -0.02913163 -0.22843434 -0.12625317 0.0668014 0.16615398 0.02432404
0.048323452 -0.010759285 -0.22553384 -0.20169015 0.0344506 -0.060112223 0.043052945 0.25814047
-0.20141733 0.110659674 0.12482056 0.183918 0.036628105 -0.16698335 0.2159547 0.089049846
-0.21545859 0.13377035 0.10027193 -0.04520161 0.08838532 0.17877598 -0.13679978 -0.17015994
0.24770735 0.058649004 0.040851627 0.16118087 -0.06355371 -0.24280831 0.18616426 0.074733205
-0.22728235 -0.21525228 0.2229149 -0.07125917 -0.09891813 0.10714641 0.07221488 -0.08302598
0.091972575 0.060192678 0.16208446 -0.17161651 -0.15981674 0.14663102 0.04782896 -0.043082874
-0.06270804 -0.21717319 0.19915514 0.11941409 -0.17889373 -0.12763211 0.15246725 -0.20713331
0.18020722 0.017962452 0.11174985 -0.007453307 0.08536785 -0.03611957 -0.24972135 0.22170532
0.14056608 0.229025 -0.0025518162 0.21023487 0.16951603 -0.101926215 0.12312452 0.16503906
-0.011064982 0.20703089 0.07805054 0.14806199 -0.17896493 0.055111766 0.095443815 0.020614518
0.12474386 0.233225 0.120098226 -0.23035356 -0.069118306 0.19510917 -0.20412056 0.13610134
0.041186884 0.0202912 -0.061912425 0.007876036 -0.01009407 -0.06777207 0.2115212 0.11454872
-0.15382731 0.15104301 0.09187218 -0.08110374 -0.17041858 0.2546513 -0.02537641 -0.19955365
-0.06260574 0.07949714 0.09967203 0.038967792 0.24936572 -0.1918234 0.1644981 -0.15752478
0.2498073 0.1185439 0.20204502 0.06434961 0.05951305 0.013016465 -0.03203476 0.2120888

linear_out.0.bias f4 [64]
00000000: dd48 e33c 00e2 ea3b f16f 813b 8c02 703c
00000010: a2bd c73c 5b99 ea3b aa7d 903b bc00 a23c
00000020: ce89 5a3c 7f93 44bc dca7 063c 2bc1 483c
00000030: d1cb 723c c0e3 3fbb ea5a 773c 85b7 843a
00000040: a1a0 ef3c e9bc 883b a59e 293c bb89 283c
00000050: bdc4 813c 7be9 6437 b0cc d43c 3d00 b33c
00000060: 0373 f23b 4267 023d 3aec 183c 605f bd3c
00000070: f563 2ebc 648c 193c 7f52 473c 2e62 a73c
00000080: 7bcd f039 8612 e43c 5dff ae3c 3b9b 2d3c
00000090: 3f63 913b 1a42 ea3c 7a11 1f3c db2a a03c
000000a0: 2277 d53b 1d43 aa3c be82 e43b 049f 123c
000000b0: b0cd c83c 235b 683c 8e3b 0ebc a036 8e3c
000000c0: f2bb 873c 9d38 6b3c 0b19 e63c e495 323c
000000d0: dd55 2b3c 20bc ad3b 7b20 4e3b 1890 663c
000000e0: 3ca5 393c 7a53 b73c 6d3c 84bb 1f07 f1bb
000000f0: 853c 913c b905 4bbb 76e5 c839 8407 88bb
0.027744705 0.0071680546 0.003950112 0.014649045 0.024382416 0.0071593947 0.0044095116 0.01977574
0.013338519 -0.011998056 0.008218732 0.012253086 0.014819101 -0.0029280037 0.015097359 0.0010125494
0.029251399 0.0041729105 0.010352765 0.010286744 0.015840882 1.364422e-05 0.025976509 0.0218507
0.0073989644 0.031836756 0.009333665 0.023116767 -0.010643949 0.009371851 0.012165665 0.020432558
0.00045929462 0.027840864 0.021362001 0.010596092 0.00443688 0.028595973 0.009708757 0.019551685
0.006514446 0.020783955 0.0069735935 0.008949045 0.024512142 0.014181885 -0.008681191 0.017360032
0.016569111 0.014356759 0.028088113 0.0108999945 0.010457483 0.0053019673 0.0031452465 0.014072441
0.011330899 0.022378672 -0.0040355236 -0.007355585 0.017729053 -0.0030978753 0.00038317934 -0.0041512866

linear_out.2.weight f4 [64, 64]
00000000: 2c90 c3bc e79b 1f3e 7a61 363e c0d8 0ebe
00000010: f805 06be ee48 9b3c fe57 3a3e a244 ce3b
00000020: 3284 2fbe ffb2 8c3d 106d 81bd 4e25 3e3d
00000030: 9e37 ab3c b327 44bd 9ce3 44be e48a a23d
00000040: 705b 15be 750e 41be 802d a83d acbc 4abe
00000050: ef22 1a3e df76 db3d 8eca 1d3e a717 b0bd
00000060: 0311 46be 6f0f 12bd d689 233e 5d6e 49be
00000070: d8fe be3c 7ff4 2a3d 0a18 2e3e 0472 09be
00000080: 5bc1 c1bd a364 323e 3ad4 4ebe a5e4 023e
00000090: 76ef 923d 609a 63bc c723 c93d 3c74 25bd
000000a0: c9e2 e03d c86e a63c b014 bcbd 170e 2ebe
000000b0: 23ae 04bd f5a1 293d 8d3e 243e 133d c6bd
000000c0: 4c12 f0bd a203 f73c 4ef6 973d 9b7b 163e
000000d0: 1254 e03a 6573 99bd 9806 d53d 9111 b83d
000000e0: 3f7e 40bd 1553 0d3e e162 c33d e637 04be
000000f0: 4f53 373e 92df e33d 7905 bcbd 5320 2abe
00000100: d9c6 1c3e a42a 123e 2b66 edbd 53e8 32be
00000110: 3116 16be 451f 4a3e f312 323e a682 d4ba
00000120: 1253 2ebc 67fa e03d 3b77 00be fbf2 33be
00000130: 3673 c1bc fb61 2dbe 85e0 86bd b06a 073e
00000140: d2e5 5a3e 5eb6 d4bb f4c6 ae3d de81 8fbd
00000150: 787b e03d 2ae9 b93d c8e2 573e 4f9e 883d
00000160: e300 f63d 90bd 1f3e 61a6 81bd ee13 293e
00000170: 3a44 e83c c9f7 13be 3524 d33d f638 c3bc
00000180: 14dc 52be cabb d8bd 3434 1f3e bf9f 37be
00000190: 4537 3ebe 1f74 0e3e 55dd 2f3e 4667 a73d
000001a0: e2f1 7fbd b62d cfbd dd48 27be b0f6 a9bd
000001b0: b1f4 7a3d ad1c 153e ca51 50be 8639 9f3a
000001c0: 9e2f 44be 253c 9d3d c4ad 6cbd 963a 413e
000001d0: 4649 a13c e85f 383e 3a1a 293d ed9c 233e
000001e0: 2f72 c93d f158 3dbe ab0a e4bd 9b49 ffbd
000001f0: a98e a6bd ec5a 543e c349 17be 9a93 453e
00000200: 27a6 99bd ec8f 183e b307 0f3e 9af1 3bbe
00000210: 4036 bf3d 2592 2f3e f201 cfbc b5fb 623e
00000220: 116b cfbc b1a1 353e ee14 4b3e fef1 f93d
00000230: 7f98 2fbd 8ad0 573d 7de6 5b3e 8d4d 1fbe
00000240: 27a2 7bbd 8e02 0e3e 8bf2 43be d790 373e
00000250: 4b45 8a3d 1a64 433e 1e47 2e3a fbd3 d93d
00000260: f2fa 0abe 328b 393d d9c5 2abe e1e4 453e
00000270: 421b 663e 0815 eb3d 92ef 333d d71b 21be
00000280: 09ee 5a3e 0e0b 623d bead 49be 2d97 803d
00000290: 3ea7 443a d728 443e 9463 1b3e 117d 41be
000002a0: f043 483e 4b05 073d c6b4 043e f2d9 26be
000002b0: 8550 b839 d9fe 303e 51ea 39be f206 4bbe
000002c0: 1e75 cf3d cf24 043e 6458 04be 7134 933d
000002d0: a679 1b3e f4e2 193e 83eb 31be eb6c 1c3e
000002e0: fe10 e83d 2944 2e3e 912d 0fbd 1e31 1fbe
000002f0: 28fa 143e accc 953d 29d4 553e 41b9 50bd
00000300: a5cd 563e 0b0e 0cbe 8377 3dbe 3c74 9a3c
00000310: 192c 37be 5ea9 a13d bb05 9cbd afed aa3c
00000320: 32a0 a5bd f579 7dbd 2be4 df3c ee45 403e
00000330: 504c 1e3e 9020 623e 2437 f63d 4cc8 0a3d
00000340: 324f 433d 12e5 42be 4dc4 fcbc 716d b93d
00000350: bc10 cc3d eb07 393e 800e 843d 94cb 433e
00000360: 4a46 a33d d917 143d 65d4 1bbe 4c93 acbd
00000370: 8e72 873d 71ef cfbc 8743 db3d 026b 1bbe
00000380: 46e9 453e e333 dfbd e946 2dbe 66a9 8e3d
00000390: 3db1 d1bd 4cf6 90bd b876 37be 8369 373d
000003a0: 974e 44be 5b84 553e b74e 8dbd 5faf eb3d
000003b0: 2d86 e13d c707 e8bd 0553 0a3d b413 8abd
000003c0: 033c c4bd 51f5 15be 1542 453e cee1 f83d
000003d0: 0066 e73d a136 dabd 269f 343e c8ce fbbc
000003e0: f906 493e 0ceb 5f3e 3a0c aa3a c662 163e
000003f0: 2f5c 2f3e 8bc2 383e ae28 0a3e ea13 28be
-0.023872457 0.15586816 0.17810622 -0.13949871 -0.13088214 0.018955674 0.18197629 0.0062948028
-0.17140272 0.06870078 -0.0631963 0.046422295 0.020900544 -0.047889423 -0.19227451 0.079366475
-0.14585662 -0.18853171 0.082118034 -0.19798535 0.15052389 0.10716032 0.154093 -0.08598261
-0.19342427 -0.03565925 0.15970549 -0.19671007 0.023314878 0.041737076 0.17001358 -0.134224
-0.09460708 0.17421202 -0.20198146 0.12782533 0.0717458 -0.013891786 0.09821277 -0.040394053
0.10980756 0.020316496 -0.09183633 -0.16997562 -0.032392632 0.04141422 0.16039486 -0.09679618
-0.1172224 0.0301531 0.07420026 0.14695589 0.0017114899 -0.07492713 0.10401648 0.089877255
-0.046995398 0.13801225 0.09540344 -0.12911949 0.17902873 0.11126627 -0.09180731 -0.16613893
0.1531023 0.14274079 -0.115917526 -0.17471437 -0.14656903 0.19738491 0.17390041 -0.0016213253
-0.010639923 0.109852605 -0.12545483 -0.17573158 -0.023614507 -0.16931908 -0.065857925 0.13224292
0.21376732 -0.0064914664 0.08534041 -0.07007192 0.1096105 0.09077676 0.21082604 0.0667082
0.12011888 0.15599656 -0.063305624 0.16511509 0.028352845 -0.14449991 0.1030964 -0.023830872
-0.20591766 -0.10582693 0.15547258 -0.17932032 -0.18575771 0.13911484 0.17174275 0.08173995
-0.062486537 -0.101161405 -0.16336389 -0.08299005 0.061268512 0.1456172 -0.203437 0.0012147881
-0.1915879 0.07677487 -0.057782903 0.18870005 0.01968826 0.18005335 0.041284777 0.15977831
0.09836232 -0.1849096 -0.11134847 -0.12465211 -0.08132679 0.20737809 -0.14774232 0.19294587
-0.07502394 0.14898652 0.13967781 -0.18353882 0.09336519 0.17145593 -0.025269482 0.22166331
-0.025319608 0.17737462 0.19832203 0.122043595 -0.04287004 0.052689113 0.21474643 -0.15556927
-0.061433937 0.13868162 -0.19135492 0.17926346 0.06751498 0.19081154 0.00066481705 0.10636135
-0.1357229 0.045298763 -0.16677035 0.19325592 0.22471336 0.11478621 0.043929644 -0.15733276
0.21379866 0.055186324 -0.19695184 0.062788345 0.00075017277 0.19156204 0.15174705 -0.18895365
0.19557166 0.032964032 0.12959585 -0.16294077 0.00035155207 0.17284717 -0.18155791 -0.19826868
0.1012976 0.12904666 -0.12924343 0.07187737 0.15183124 0.15027982 -0.17374997 0.15275924
0.11331366 0.17018189 -0.034955565 -0.1554608 0.14548552 0.07314429 0.20881714 -0.050957922
0.20976885 -0.13677232 -0.18502621 0.018854253 -0.17887916 0.07893632 -0.076182805 0.02086529
-0.080871955 -0.061883885 0.027330479 0.18776676 0.15458798 0.22082734 0.12022236 0.033882424
0.04768295 -0.19032696 -0.030855322 0.090540774 0.09964129 0.18069427 0.06448078 0.19120628
0.07972391 0.036155555 -0.15217741 -0.08426532 0.066136464 -0.02538273 0.10706239 -0.15177539
0.19327268 -0.108985685 -0.16921581 0.06965904 -0.10238884 -0.070782274 -0.17916381 0.04477836
-0.19170605 0.20851271 -0.06899779 0.11508059 0.1101192 -0.113296084 0.03377058 -0.06742039
-0.09581759 -0.14644362 0.1926349 0.12152444 0.11298752 -0.10654951 0.17638835 -0.03073825
0.19631566 0.21867007 0.0012973615 0.14686117 0.17125009 0.18042962 0.1349208 -0.16413847

linear_out.2.bias f4 [64]
00000000: f269 303b ec89 ce3c a974 913c f07c c43c
00000010: e459 a63c 40c3 783b 203f 1c3c 6085 233c
00000020: d45f 703c ed96 ef3b f8c1 893c 9f24 c63c
00000030: a49f 083c 218f 193c 6072 833b f350 36bb
00000040: 18fa 8f3c c2dc d03b 3507 a63c 7a6f 4d3c
00000050: b939 fc3b 9736 553c 846c 2b3c be2f ae3b
00000060: b6c0 c73b 9601 883c 5b36 7e3b 9cb0 5f3c
00000070: 5118 5c3c 836c 453a b2dd 143c d129 833c
00000080: 75bf 8f3c a7c4 923c 163e b63b 7996 1f3c
00000090: da47 fdb9 2e25 353c cb48 d63b 658d 393c
000000a0: 8e9c 9f3c 7a11 b83b 364b 553b e7ab 473c
000000b0: c689 7a3c 92c3 a93c 062b 9b3c 9abb 1abc
000000c0: ef98 dd3b c284 e43a 5360 b9bb 2038 863c
000000d0: dda3 963c 3825 8d3c 1a46 b13b 99c2 4e3c
000000e0: 821e 263c 65d7 303c 9aed f53b 277b 3abb
000000f0: ea45 723c f540 ea3b d16d 78bb 82d3 e93a
0.0026918617 0.02521225 0.017755823 0.023985356 0.020306535 0.0037958175 0.009536535 0.00998053
0.014671285 0.007311693 0.016816124 0.024187384 0.008338843 0.0093725035 0.0040114373 -0.0027819246
0.017575309 0.0063739726 0.020267108 0.012538785 0.0076973108 0.0130135035 0.010462884 0.00531575
0.006095971 0.016602319 0.0038789723 0.013652947 0.013433532 0.0007531123 0.009086059 0.01601115
0.017547349 0.017916037 0.0055616004 0.009740465 -0.00048309454 0.011056228 0.0065394393 0.011325215
0.01948383 0.0056173177 0.003254605 0.012186981 0.015291637 0.020723138 0.018941414 -0.009444142
0.006762616 0.0017434584 -0.0056572347 0.016384184 0.018388683 0.017229661 0.005409968 0.012619638
0.01013911 0.010793542 0.007505131 -0.0028454752 0.014787177 0.0071488568 -0.0037907253 0.0017839523

linear_out.4.weight f4 [64, 64]
00000000: 02db cb3d 48b3 3bbe e13f 123d 518a c0bd
00000010: 22c5 1abc d3c2 5b3d 4ca6 13be 4c55 01be
00000020: 7b3a 233e c0fb f2bd 5b0a f63b c0aa 3abe
00000030: cf30 0ebe 81a3 533e f380 01be 63f9 6ebd
00000040: 5022 fcbd 5b0d 0abe 84c2 ebbd 4fe7 15be
00000050: fddf 2f3e 8a04 5f3e 9788 b2bd 459b b0bb
00000060: d52c 33be 65f5 65bb 9a5e e6bd 991d 023e
00000070: 6430 483e 43b4 573e c567 3e3c 7aed 6fbd
00000080: 384f 06be ccf7 b63d 632d 583e 58a3 ddbd
00000090: d9e7 1b3e 5a64 573d 0c10 963d 8431 653d
000000a0: 0ef2 d73d cd2a e73d 0804 823d e217 533e
000000b0: 2184 dabd 1cb2 2b3e d8a6 543e e7f7 163e
000000c0: dc26 2e3e 587e 38be 4fc3 ea3d 642e 1cbe
000000d0: 1a3b 87bd bf65 f7bd ad83 343e 31d8 5b3d
000000e0: 8f30 fabd 6033 9cbb 0a99 263e 6d84 5b3d
000000f0: 17ec 113d aeb1 dbbd 3f7e 153d 1579 dbbd
00000100: f8b4 193e b846 3f3e 2827 3a3e b22e 1e3e
00000110: 8cde e7bd b8a0 30be 1e2b 393e 4bca e83d
00000120: 5b06 10be 59a2 263e 3a99 fc3d d0f6 51be
00000130: bcaf f9bd de0b d4bc cd60 17be ca59 1f3e
00000140: cbcc 54bd 7fe9 333e 121d 593e b40a 4cbe
00000150: c138 f6bd 1625 d8bc 46a1 1a3e 5d9c 463d
00000160: bb6d f1bd b000 0e3e ad1d 443e 7486 bbbd
00000170: e004 e8bd 8af8 713d 8e38 5a3e a91f 943d
00000180: f9ee 203e 1509 dcbd f3d0 0a3e d548 ae3d
00000190: 8868 a73d 120a 443e a509 fd3d a37d cc3d
000001a0: 2787 4cbb 896d 54be 205d c23d 67e7 273e
000001b0: 53ff 10be 06d3 44be 7cf8 a6bd ee8f ef3d
000001c0: 73f1 56be fe5c 083d d606 ddbd 11a7 a83d
000001d0: ad8a 39be bb90 18be 1fa7 ed3d e19b 1c3e
000001e0: b1d8 333e 1962 45bd e051 afbd 3adb 3e3e
000001f0: 199b 943d 02d7 b93c 1c78 e0bd 3f76 8e3c
00000200: 7061 febd 9dfb 10be 0c1f d2bc 9348 22be
00000210: 3cbd dabd 4081 933d d00a cf3d 7b71 923d
00000220: 16d8 973d aead b73d 5d64 4d3d e4ff b4bd
00000230: ac66 0f3e aea3 12bd 5d01 5eba 9b7d 983d
00000240: e70c 113c 0d45 e73d 677f 10be 8717 44bd
00000250: f083 11be 22d7 db3d e30a 33bd d041 a03d
00000260: 7479 5d3c 3a01 9abd 1200 71bc e9f4 193e
00000270: a3e8 94bd 9a2d dc3d 6777 1a3e 0e44 b7bb
00000280: 883e 48be e50b 0d3e 79dd 033e 3daa 7f3d
00000290: 0ef8 08be 2507 433b db51 e0bc 0bb8 21be
000002a0: 9b3c ebbd 1b0d 30be 6648 c43d 0daf 29be
000002b0: 9a06 12be 7e40 4bbe 8e90 26bd 7226 1e3e
000002c0: a37e d63c b63e 06be 5d92 063e 4fb7 bfbc
000002d0: 745e e1bc 130f b33d 6402 50be cd08 5cbc
000002e0: afd2 4cbe 4bd4 4abe aed1 0dbe 6495 acbd
000002f0: 3052 35bd 45bd 1ebd dd51 f9bc 7bd7 4dbd
00000300: f589 553d 3233 8c3d 4e09 b6bd dfc4 54be
00000310: ca0b d5bd ee49 18be 7ca1 113e b57f 2c3d
00000320: d945 5e3e 7b3b b53c 412b 30be ae0e ff3d
00000330: 5f52 75bd adbb 88bd 575c 263e 5865 423e
00000340: eaa4 d23d 7d4b 26be c957 613e 69e4 c03d
00000350: 1bee 37be 7a99 003e f16d ffbd d544 04be
00000360: a5b4 b0bd 7246 58be de93 e8bd d0f2 543e
00000370: 834b 20be 9ccd 50be d630 dfbd 7eb2 55be
00000380: 5cfe 3bbe e38b 583c d85a 303d 6ab2 853d
00000390: af34 08be dbb2 d6bb 86dc a53d 9111 51be
000003a0: 3484 6ebd 240f ac3b 24d0 363e e5c4 5e3e
000003b0: 9748 adbc 1926 373e 83c7 06be 9a54 073e
000003c0: 8261 61bd 1003 8dbd dc81 1e3e 68b1 093e
000003d0: 06d5 f0bd a284 25be 0740 cd3d 295b 293e
000003e0: f4fe 39be 8da7 ddbd 4e6d dc3d c7da 9a3d
000003f0: 80f2 3b3e ec3a 843d 6210 32bd d7e6 02bd
0.09953882 -0.18330109 0.03570545 -0.09401382 -0.009446414 0.053652596 -0.14418906 -0.12630194
0.15940277 -0.11864424 0.0075085587 -0.18229198 -0.13885807 0.2066784 -0.12646846 -0.058343302
-0.12311232 -0.13481657 -0.1151171 -0.14639018 0.17175288 0.21779075 -0.08717459 -0.0053896033
-0.17497571 -0.0035088893 -0.112485126 0.12706603 0.1954971 0.21064858 0.01162142 -0.058576085
-0.13116157 0.08933982 0.21111064 -0.10822171 0.15225162 0.052585937 0.073272794 0.055955425
0.10544215 0.112874605 0.06348425 0.2061458 -0.10669733 0.16767162 0.20766771 0.14743005
0.17007011 -0.18016946 0.114630334 -0.15252072 -0.066030696 -0.120799534 0.17628355 0.053672973
-0.12216293 -0.0047668666 0.16269317 0.053593088 0.035625543 -0.10727249 0.03649735 -0.10716454
0.1501044 0.18679321 0.18179 0.154475 -0.11321744 -0.1724881 0.18082854 0.11366709
-0.14064924 0.16272868 0.12333913 -0.20504308 -0.12191722 -0.025884565 -0.1478302 0.15561596
-0.05195312 0.1756954 0.21202496 -0.19925958 -0.12022544 -0.026384871 0.15100583 0.048488963
-0.117885076 0.1386745 0.19151945 -0.09156504 -0.11329055 0.059074916 0.21310636 0.07232601
0.15716161 -0.1074392 0.1355627 0.08509985 0.08174235 0.19144467 0.12355355 0.09984901
-0.0031208487 -0.2074491 0.094904184 0.16396867 -0.14159898 -0.19221124 -0.081528634 0.11697374
-0.20990543 0.03329181 -0.107923195 0.082349904 -0.18119307 -0.1489896 0.116041414 0.15293838
0.1756313 -0.048189256 -0.08560538 0.18638316 0.07256145 0.022685532 -0.10960409 0.017390369
-0.124209285 -0.14158483 -0.02564957 -0.15847997 -0.10680625 0.07202387 0.10109484 0.07150551
0.07414262 0.08968674 0.050144542 -0.0883787 0.1400401 -0.03580063 -0.0008468831 0.07445832
0.008853174 0.11292467 -0.141111 -0.047874 -0.14210486 0.10734393 -0.043711554 0.07825053
0.013517726 -0.07519765 -0.014709489 0.15034832 -0.072709344 0.10750885 0.15084611 -0.0055928295
-0.19555104 0.13774069 0.12877454 0.06241821 -0.13375875 0.0029758897 -0.027382782 -0.15792863
-0.11486169 -0.171925 0.095841214 -0.16570683 -0.14260331 -0.1984882 -0.0406652 0.15444353
0.026183432 -0.1310986 0.1314177 -0.023402838 -0.02751086 0.087431096 -0.20313412 -0.013429833
-0.20002244 -0.19807546 -0.13849518 -0.084269315 -0.044267833 -0.03875472 -0.030434543 -0.050254326
0.05213352 0.06845702 -0.088884935 -0.20778225 -0.10402639 -0.14871952 0.14221758 0.04211398
0.21706332 0.022123089 -0.17204 0.12453972 -0.05989301 -0.06676421 0.16246162 0.18983972
0.10285361 -0.16239734 0.22006144 0.09418566 -0.17961924 0.12558547 -0.124721415 -0.12916882
-0.08628205 -0.21120623 -0.113563284 0.2079575 -0.15653805 -0.20390934 -0.108979866 -0.2086887
-0.18358749 0.013216945 0.043055385 0.065281704 -0.13301347 -0.006552083 0.08098702 -0.20416857
-0.058231547 0.0052508283 0.17852837 0.21754797 -0.021152778 0.17885627 -0.13162045 0.13215867
-0.05502463 -0.0688535 0.15479225 0.13446581 -0.11759381 -0.16163877 0.10021978 0.16538681
-0.18163663 -0.108229734 0.10763036 0.0756126 0.18354225 0.06456551 -0.043472655 -0.031958427

linear_out.4.bias f4 [64]
00000000: 9475 623c 3d81 113c 9393 3c3c d2f4 2d3c
00000010: 2a7e 223c 3052 4a3c 5cae 2f3c 764f b83c
00000020: 5923 743c e6cf 103c a84c 6a3c 954f 723b
00000030: e3e3 f13b cb2c 4a3c e54e 783c a412 643c
00000040: 73db de3b a9bc 683c 1bc5 2d3c 5c37 433b
00000050: 0a2e 273c 2aaf 2a3c c47d 443b 0663 543c
00000060: cf7d c73a 5b65 d23b 4fcb 823b f5c5 3c3c
00000070: 88df 723c 02a4 193c 40c5 0d3c cff8 823c
00000080: 7b6b 3b3c c2a2 b33a a579 d53b da81 303c
00000090: ab61 2d3c ba5b 6d3c dcc4 963c 7aff f33b
000000a0: 155a bc3c b029 5d3c e8f1 d53b 0517 613c
000000b0: d14c d73b 9194 433b 9aa6 df3b d13b 063c
000000c0: 6bee 7c3c f8e3 283c 27c7 e33b 16aa 2a3c
000000d0: 2119 883a cece 823c 2371 763c 7176 653c
000000e0: ef3b 523c ac2e 383c 76b4 423c b99d e33b
000000f0: bf07 133c a00c 953b 8288 a03c 16fc e13b
0.013821978 0.00888091 0.011509794 0.010617452 0.009917775 0.012348697 0.010722723 0.022498827
0.014901006 0.008838629 0.014300503 0.0036973704 0.0073819025 0.012339781 0.015155529 0.01392046
0.0068010627 0.014205136 0.010606076 0.0029787635 0.010203848 0.010417739 0.0029982189 0.012963062
0.0015219989 0.006420774 0.0039915214 0.011521806 0.014823802 0.009377481 0.008652985 0.015987782
0.0114392 0.0013705122 0.0065147453 0.0107731465 0.010582368 0.014487201 0.018404417 0.0074462267
0.022992173 0.013498709 0.0065290816 0.013738398 0.0065704365 0.002984319 0.0068252804 0.008192972
0.015437703 0.010308258 0.006951231 0.010416528 0.0010383466 0.015967753 0.015041622 0.014005289
0.012831672 0.011241596 0.011883846 0.0069462922 0.008974015 0.004548624 0.019596342 0.006896506

linear_out.6.0.weight f4 [64, 64]
00000000: 38da 813d 4280 35be 89fc 75bd 58ff 50be
00000010: 8717 35bd 53b0 b6bd aff1 0fbe 6514 0dbe
00000020: b892 783d 27a8 9cbd 31c0 153e e055 8dbd
00000030: 72ce 483e ce7a 53be afcc 463e 2886 0ebd
00000040: 71e4 4abe dc2f 1abe 701a c0bd 181f 6a3c
00000050: d002 3b3e 9274 363e 42f5 25be c4b1 33be
00000060: 1784 2a3e 1c71 663e 9ca9 05be e04e 3bbe
00000070: 9d4c 01be f5c7 073e b66e 403e b9e3 29be
00000080: 3105 10bc f89a 243d d50b 263d 6590 dbbd
00000090: 30b2 15be 46ab 053d 84c4 98bd 5873 20be
000000a0: 1b3d 5a3e cfe9 d3bd b25d 4cbe 3c78 cbbd
000000b0: d4bb bfbd 949e 30be 9da5 e7bd 87e0 383e
000000c0: 0be6 153e 8d35 323d 82d7 dfbc 4224 413e
000000d0: 9ef3 cabc c765 d7bc 8c7b 063e 3e53 1e3e
000000e0: 6b2d 2fbd 15cb 44be ff71 433b 0b76 33bd
000000f0: 8276 103e ba55 25be 058a 263d 31e0 a53d
00000100: 6c3f 543e 2466 39be 7ea5 543e bd2f 993c
00000110: 0286 4abe a962 10bd 9e67 2a3e 7adb 593e
00000120: 0281 aabb 07a7 50be 74d0 243e 1e64 48be
00000130: 4969 a73d 3050 32be 88a4 4a3e cc4e 593e
00000140: 5ec6 9c3d dc34 793d 97ba 19bd e6dc 56be
00000150: 2a39 8dbc 65b3 363e a653 c4bc 4759 513e
00000160: ac66 6d3d 40c1 133e 0350 013e 32d3 383e
00000170: ae25 c53d 0efa 603e 0225 07be 6dee 6c3c
00000180: 16e5 d93c 49bf 85bc 2624 233e 2472 093e
00000190: 659d 1dbe 3e6e 103e b86f f0bd a777 31bd
000001a0: 1002 093c 29f9 08be e0ac 063e 494d 51bd
000001b0: 649d 9bbc d775 04be c442 3f3e f429 513e
000001c0: be6a 1fbd d216 10be c3f0 92bd f4af c2bd
000001d0: d3dc cfbd cc2e 4d3e f2af 3d3e 8b54 35be
000001e0: 485b 91bc 0f42 7bbd dc62 7abd cfa8 1dbe
000001f0: 82ed 253e c837 59be b840 8e3d 8f93 65be
00000200: c134 d83d 07a2 ba3d d50f 66bd a3af ad3d
00000210: 5a6a 733c db4d 80bd 3b65 30be a7f3 0a3e
00000220: a505 7dbc 2762 b1bc f9b8 3a3d d502 1bbe
00000230: e39b 42be 26be b2bd 0569 423e 13cb 0b3e
00000240: d42e 273c 1eda b3bd 8598 213e 9d67 4ebd
00000250: e2e8 9a3d 0814 d03c 48fb 38be a1a2 53be
00000260: 5014 afbd ca8b 3cbe aa6c 1e3d b945 65bd
00000270: c23c dfbc 243b 363e c984 213b c43c a8bd
00000280: d90b f7bd 98b2 1bbe 61b6 383e 5a22 eabc
00000290: c392 e93d 00a2 56bd 21fe 05be e654 733d
000002a0: d94c 013d d6f4 053e 68d9 45bc 0ea2 b5bc
000002b0: 4fd9 333e f284 403d ca8e c03d 9fdd 1c3e
000002c0: 8ab9 183e 3c38 5d3e 4397 363e aa6f f8bc
000002d0: 25ca a53c bd3c c43c a666 e6bd 90ba 373e
000002e0: f07f 483e befc 57be d48c b03d bcfe 1b3e
000002f0: 2e86 973d 068e 07be 0207 873d 0b18 9b3c
00000300: 6c7a ef3d aaa7 393e 9508 333d 895c 3b3e
00000310: 3a83 37be 01d1 1abe 9fc4 283e 9a24 2d3e
00000320: 6db6 b3bd d5f2 28be fd38 383e c19b e03d
00000330: 6c1a 9cbd 5bae 26be 8bf1 173e 49d3 46be
00000340: 6982 253e 060e 04bc 9256 2fbe c1f8 8f3b
00000350: abb6 94bc 13c2 debd ef70 4ebe 2cc0 d5bd
00000360: 1e47 ffbd d466 f33d 070b 74bc f5a3 58be
00000370: f411 52bd 1e03 223e 230a af3d 1b84 ad3d
00000380: e502 19be a34a 303c 1342 2fbe b16b 22be
00000390: 84b8 f0bc 0cf9 c03d ca6c 14bd 6924 15be
000003a0: 88ab 00be 3dc7 30be a73d 133e 835e d83b
000003b0: a6e0 213e 0cbf 32be 516f 313e b33a 4ebd
000003c0: e32d 03bd a96f c03c eaf5 3e3e 0d3d 14be
000003d0: 0491 10be 7cde 14be 6a00 443e dbd4 17bc
000003e0: a461 59be 0d35 a5bd d05b 103e 2866 ebbd
000003f0: 49f9 5abe 111a 2bbe 7b19 81bd 1800 2e3e
0.0634045 -0.17724708 -0.06005529 -0.20409906 -0.04421189 -0.0892035 -0.14057039 -0.13777311
0.060686797 -0.0764926 0.14624096 -0.06901145 0.19610003 -0.20652315 0.19414018 -0.03479591
-0.19813706 -0.1505732 -0.093800426 0.01428964 0.18262792 0.17817906 -0.1620684 -0.17548281
0.16651951 0.22504085 -0.13052982 -0.18291807 -0.12626882 0.13259871 0.18792233 -0.16590776
-0.0087903 0.040186852 0.040538628 -0.107209004 -0.14618754 0.032634042 -0.074593574 -0.15669
0.21312372 -0.1034733 -0.19957617 -0.09935042 -0.09361997 -0.17247993 -0.11310885 0.180544
0.14638536 0.0435081 -0.027324442 0.18861488 -0.024774369 -0.026293648 0.13133067 0.15461442
-0.042767923 -0.19218095 0.0029822586 -0.043813746 0.14107707 -0.16145983 0.04065897 0.08099402
0.20727319 -0.1810537 0.20766255 0.018699521 -0.19777682 -0.03525034 0.1664109 0.2127513
-0.005203367 -0.20376216 0.16095144 -0.19569442 0.081743784 -0.17413402 0.19789326 0.21221465
0.07655023 0.060841426 -0.03753146 -0.20982704 -0.017239172 0.17841871 -0.023965668 0.20444213
0.057959244 0.14429188 0.12628178 0.18049315 0.096263275 0.21970388 -0.13197711 0.014461142
0.026598494 -0.016326563 0.15931758 0.13422447 -0.15392072 0.14104554 -0.11740059 -0.043327
0.008362308 -0.13376297 0.13151884 -0.051099095 -0.018995948 -0.12935577 0.18677813 0.2042616
-0.038920157 -0.14071205 -0.07174828 -0.09506217 -0.10149541 0.20037383 0.18524149 -0.17708032
-0.017743722 -0.061342295 -0.061129436 -0.15396427 0.16203883 -0.21212685 0.06945938 -0.2241957
0.10556937 0.091129355 -0.056167442 0.08480766 0.014856899 -0.0626485 -0.17226116 0.13569508
-0.01544324 -0.021653248 0.04558656 -0.15137799 -0.19004779 -0.08727674 0.18985374 0.13651685
0.010204036 -0.08781837 0.15780838 -0.050391782 0.0756395 0.025400177 -0.18064606 -0.20667507
-0.08548796 -0.184127 0.03867785 -0.055974696 -0.027250651 0.17795998 0.0024645797 -0.08214715
-0.12062807 -0.15204847 0.18038322 -0.028580833 0.11404946 -0.05240059 -0.13085224 0.059407137
0.03156743 0.13081679 -0.0120757595 -0.022172 0.17563365 0.047001787 0.09402235 0.15318917
0.14914528 0.21603483 0.1783114 -0.030326683 0.020237992 0.023954744 -0.112500474 0.17942262
0.19580054 -0.21092507 0.08620611 0.15233892 0.073986396 -0.13237771 0.065931335 0.018932363
0.11693272 0.18130365 0.043709356 0.18297018 -0.17921153 -0.15118791 0.16481255 0.16908494
-0.08775029 -0.16498883 0.1799049 0.10967208 -0.07622227 -0.16277449 0.14838235 -0.19416536
0.16163029 -0.008059984 -0.17122868 0.0043936674 -0.01815351 -0.108768605 -0.20160268 -0.104370445
-0.124647364 0.11884847 -0.014895207 -0.21156295 -0.051286653 0.15821502 0.08546855 0.08472463
-0.1494251 0.010759982 -0.17115049 -0.15861394 -0.029384859 0.09422502 -0.03623656 -0.1456467
-0.12565434 -0.17263503 0.14378987 0.0066030635 0.15808353 -0.17455691 0.1732762 -0.05034895
-0.032026183 0.023490744 0.18648496 -0.14476414 -0.14117819 -0.14537996 0.19140783 -0.009267057
-0.21228653 -0.08066759 0.14097524 -0.11494094 -0.21384157 -0.16709162 -0.06303688 0.16992223

linear_out.6.0.bias f4 [64]
00000000: 8f03 2f3c 6df9 6f3c 15f2 303c 2a15 183c
00000010: d9b2 373c 486b 263c 2fbc 243c 3424 193c
00000020: 3eb4 243c 8f04 f83a 9c66 833b aa6e ac3a
00000030: 2bb7 2d3c adbc 033c 10ae 283c 7dd3 d73b
00000040: b002 273c 7ed2 0e3c d47c 323c 0e23 b03b
00000050: 45ac 363c 3775 1a3c a30a f03a 8ce2 003c
00000060: 7d7b 883c 4548 413c 7616 213c 0716 1f3c
00000070: 016d 203c 2af3 1a3c 17df 2a3c 4517 073c
00000080: dd5b d73b 199d 303c f4f9 213c 3cab 4d3c
00000090: 21bc 523c e0a3 213c 93c7 d93b 9fd8 6d3b
000000a0: f4af 3c3c 3d1e 863c aa62 7c3c 249c 2c3c
000000b0: 5bab b83c 3f4a 5e3c cfb6 1f3c e4f3 3b3c
000000c0: 4e4b 2a3c ef69 0f3c bc82 703c 86d4 0d3c
000000d0: 3b3d 253c c536 153c bb12 a53a 3800 0e3c
000000e0: 2f40 633c d830 223c 6c3a fe3b 115f 6f3c
000000f0: 979d 483c 3172 4c3c 332c 273c 7bdf 1f3c
0.010682001 0.01464687 0.010799904 0.00928239 0.011212074 0.010157414 0.010054632 0.00934701
0.010052739 0.0018922257 0.0040100347 0.0013155539 0.010602753 0.008040589 0.010295406 0.0065864907
0.010193512 0.008717177 0.010894019 0.0053752726 0.011149471 0.00942736 0.0018313717 0.007866513
0.016660446 0.011797016 0.009832015 0.009709842 0.009791614 0.009457389 0.010429165 0.008245294
0.0065722303 0.0107796425 0.009886254 0.0125530325 0.012862236 0.009865731 0.0066461056 0.0036292446
0.01151656 0.01637184 0.015404383 0.010535274 0.022542646 0.013567506 0.009748175 0.011471722
0.010393931 0.008753284 0.014679607 0.008656627 0.010085399 0.009107296 0.0012594083 0.008667044
0.013870283 0.009899341 0.0077584293 0.014610068 0.012244604 0.012478397 0.010203409 0.009757872

linear_out.6.2.weight f4 [1, 64]
00000000: 8e74 22be d24b 293e 4a38 373e 8fe7 ee3c
00000010: 47ea aebd 4df2 44bc fa03 7a3e 1cd4 6bbe
00000020: 1f56 3fbd b224 8cbe fec9 cbbd ae6a 7f3e
00000030: e008 083e 9596 d1bd 4ffc 133e b989 7bbe
00000040: 1541 dcbd cb75 793d 9400 923c dd2d 613e
00000050: 5bdd 87be 7121 6e3d fcfc 2e3e 6d84 ed3d
00000060: 04d2 7f3e 9f42 2cbe 4a8b 2bbc 2763 c83d
00000070: 3a2e d6bd 70db 653d c2f0 1c3e c276 ddbd
00000080: 3cdc 33be 9e93 8dbe a9bd 10be 0cc1 5d3e
00000090: d8af 8dbe db97 993d 2e73 13bd 03f3 7fbe
000000a0: a280 2abe 7f10 47be 67e7 293e 3f1b 693d
000000b0: 5aeb 29be 9838 54be 79f2 03bb 99fb 573d
000000c0: 1946 473e eb0d 0b3e 9b1f 8abe 7433 4a3e
000000d0: 8b33 8e3e 7a1a f23d fcc8 633e fad4 6c3e
000000e0: 8616 2f3e c3bc cb3d 080f 853e 537f 113e
000000f0: bdd3 0b3e 1696 963d eb5e f73c 6d08 71be
-0.15864775 0.1653283 0.17892566 0.02916315 -0.085407786 -0.01202066 0.2441558 -0.23030132
-0.04671299 -0.27371746 -0.09950636 0.24943039 0.13284636 -0.10233799 0.14451717 -0.24564256
-0.10754601 0.06090335 0.017822541 0.21990152 -0.26536068 0.05813736 0.17088693 0.11597524
0.24982458 -0.16822289 -0.010470221 0.09784537 -0.10458036 0.056117475 0.15326217 -0.10813667
-0.17564481 -0.27651685 -0.1413485 0.21655673 -0.2767322 0.07499667 -0.035998516 -0.24995045
-0.16650632 -0.19439887 0.16592179 0.05691075 -0.16593686 -0.20724714 -0.0020133539 0.052730177
0.19460334 0.13579528 -0.26977238 0.1974619 0.277737 0.11821456 0.22244638 0.23128119
0.17098436 0.09948113 0.2598803 0.14208727 0.1365499 0.07352845 0.030196628 -0.2353837
