checkpoints/1dwave_ProPINN_point.pt (torch, 70187 bytes, 16 tensors)

linear_emb.0.weight f4 [8, 2]
0	0x3b10a3a0	0.0022070184
1	0x3b7e3a59	0.0038792102
2	0xbf011d79	-0.50435597
3	0x3f81157b	1.008468
4	0x3dcb987f	0.09941196
5	0x3e4b4c52	0.19853333
6	0x3d8732ad	0.066014625
7	0x3e09c137	0.13452612
8	0xbf11fa99	-0.57023007
9	0x3f91f560	1.1403008
10	0xbf3d3547	-0.7390942
11	0xbfbd3311	-1.4781209
12	0xbedeb9b7	-0.43501064
13	0x3f5edd5d	0.87056524
14	0xbe9299d6	-0.28632993
15	0xbf126ee8	-0.5720048

linear_emb.0.bias f4 [8]
0	0x3d3bcff2	0.04585261
1	0xbd5d1110	-0.05397135
2	0xbd721383	-0.05910064
3	0x3e4f69c2	0.20255187
4	0xbe217e23	-0.15770774
5	0x3e856368	0.26052403
6	0x3d5b671d	0.053565133
7	0xbe073ec8	-0.13207543

linear_emb.2.weight f4 [32, 8]
0	0x3eb079a1	0.34467795
1	0x3e7aff4a	0.24511448
2	0xb9cbeacb	-0.00038894112
3	0xbe0a1193	-0.13483267
4	0xbdf1d562	-0.11808278
5	0xbdee3456	-0.11631076
6	0x3e76efa7	0.24114858
7	0x3e06ea8c	0.1317541
8	0xbea0f918	-0.31440043
9	0xbdc52e2a	-0.09627946
10	0xbe4f4385	-0.202406
11	0xbd4a53f8	-0.049396485
12	0xbd12b2a6	-0.035814904
13	0x3dd47903	0.10374644
14	0xbdea43ea	-0.11438735
15	0x3e9c771d	0.30559626
16	0x3ecb019b	0.39649662
17	0xbe3ee097	-0.18640362
18	0x3e66798c	0.22507304
19	0xbe87f8bb	-0.26556954
20	0x3ea20029	0.31640747
21	0x3e6eddc5	0.23326786
22	0x3eb131b6	0.3460824
23	0x3e92d4b7	0.28677914
24	0xbdeef4b1	-0.11667765
25	0x3ca87980	0.020565748
26	0xbe5dc42d	-0.21656866
27	0x3e20452e	0.1565139
28	0xbe52b6e8	-0.20577586
29	0xbe59e3dc	-0.21278328
30	0xbe9446b4	-0.28960192
31	0x3e556b9a	0.20841828
32	0xbea02a21	-0.31282142
33	0x3e476398	0.19471586
34	0xbec927d0	-0.39288187
35	0x3e03ed05	0.12883385
36	0x3d5e411c	0.054261312
37	0xbeb708ff	-0.3574905
38	0xbed9e1ae	-0.42554992
39	0xbe757b86	-0.23972902
40	0x3e63368b	0.22188775
41	0xbea44f72	-0.32091862
42	0x3ecf515b	0.40491757
43	0xbe8a1e24	-0.2697612
44	0xbec67479	-0.38760737
45	0xbec041ca	-0.37550193
46	0x3e712847	0.23550521
47	0x3d47fefb	0.048827153
48	0xbea8d563	-0.329753
49	0x3dc1cbb1	0.09462679
50	0xbeb20b6e	-0.34774345
51	0x3dade852	0.08491577
52	0xbe8d034a	-0.27541572
53	0xbed4d4bf	-0.41568562
54	0x3d5ee112	0.054413863
55	0xbea6b59e	-0.32560438
56	0x3e01cb85	0.12675293
57	0x3d8fb79a	0.07017441
58	0xbdc74b9a	-0.09731217
59	0x3ec1413a	0.37745076
60	0x3d0e789f	0.034783002
61	0x3d8d0475	0.06885616
62	0x3e869643	0.26286516
63	0x3e83b476	0.25723618
64	0xbea06219	-0.31324843
65	0xbdb9cd03	-0.09072306
66	0xbde294a4	-0.11063507
67	0x3e1351f6	0.14386734
68	0x3eba0c5f	0.36337563
69	0xbe6dfbba	-0.23240557
70	0xbe94b329	-0.29042938
71	0x3de55029	0.1119693
72	0x3dd675d0	0.1047169
73	0x3c80b0c0	0.015709281
74	0xbd0c4e8a	-0.03425459
75	0x3d4a9e56	0.049467407
76	0xbe99f368	-0.30068517
77	0xbe73549d	-0.23762746
78	0x3e9357bc	0.28777874
79	0xbe8cecaa	-0.2752431
80	0xbe7f69c4	-0.2494269
81	0x3e4900b6	0.19629177
82	0xbce501d9	-0.027954983
83	0xbe5c0000	-0.21484375
84	0xbe623801	-0.22091676
85	0x3e0e0a78	0.13871181
86	0x3e65e046	0.22448835
87	0xbdd7a82b	-0.10530122
88	0x3e723ce7	0.23656045
89	0x3d75faf0	0.060053766
90	0xbb15878e	-0.0022816393
91	0xbda5c1a0	-0.08093572
92	0x3e55d608	0.20882428
93	0x3ee399e3	0.44453344
94	0xbec8f3e0	-0.39248562
95	0x3b0344a9	0.0020029938
96	0xbd83fde2	-0.06444909
97	0x3dca3521	0.09873415
98	0x3e131727	0.143643
99	0x3e9ea873	0.30987892
100	0x3e46e709	0.1942407
101	0x3ddb09b3	0.10695209
102	0x3e52ded9	0.20592822
103	0x3e038ce3	0.12846713
104	0x3e9639b9	0.29340914
105	0x3e819ccc	0.2531494
106	0xbc914061	-0.017730894
107	0x3d5e1171	0.054215852
108	0xbe2b502a	-0.16729799
109	0xbe8eaaef	-0.27864787
110	0xbe79fd62	-0.24413064
111	0x3e4f3f1b	0.20238917
112	0x3e103171	0.1408136
113	0x3e56dce7	0.20982705
114	0xbe823218	-0.25428843
115	0xbe738864	-0.23782498
116	0x3e3aa866	0.18228301
117	0xbeca97bc	-0.3956889
118	0xbe325e1e	-0.17418715
119	0x3e8682fa	0.26271802
120	0x3e04a992	0.12955311
121	0x3da945ba	0.082652524
122	0x3df2d39b	0.11856767
123	0xbeb60849	-0.35553196
124	0x3ee389d3	0.4444109
125	0x3c3c7818	0.011503242
126	0xbdf793d1	-0.120887406
127	0x3eb0192f	0.34394214
128	0x3df82d02	0.121179596
129	0xbd684cfb	-0.05671404
130	0x3c81cd0c	0.015844844
131	0xbe07b9a0	-0.13254404
132	0xbe6f893d	-0.23392196
133	0x3df506a5	0.11964158
134	0x3eafee6e	0.34361595
135	0x3e80907d	0.25110236
136	0xbe73104e	-0.23736688
137	0xbec7157a	-0.38883573
138	0x3e001b0c	0.12510318
139	0xbe3f0f1d	-0.18658109
140	0xbdf8cc22	-0.1214831
141	0xbde13887	-0.1099711
142	0xbedd2de6	-0.4319908
143	0x3d1ed480	0.038776875
144	0x3c744d2f	0.01491098
145	0xbd83b98a	-0.06431873
146	0x3de07cf1	0.10961331
147	0xbe2762ec	-0.1634633
148	0x3e016980	0.12637901
149	0x3c67453d	0.014115629
150	0xbe1ac5c5	-0.15114506
151	0xbe88d276	-0.2672307
152	0xbda86676	-0.08222668
153	0x3e21acd4	0.15788585
154	0x3e025332	0.12727049
155	0xbe5eed62	-0.21770242
156	0xbe807fbb	-0.2509745
157	0x3e2a1cfb	0.16612618
158	0x3e7fb6ae	0.2497203
159	0x3e57b78a	0.21066108
160	0xbe2a5dd1	-0.1663735
161	0x3dc5a53b	0.09650656
162	0xbe98dfa7	-0.29858133
163	0xbe91e158	-0.28492236
164	0x3e6bac47	0.23014937
165	0x3ea1ed33	0.3162628
166	0x3e0370f8	0.12836063
167	0xbe6fb029	-0.23407044
168	0x3e595a37	0.2122582
169	0xbbaea3c2	-0.00532958
170	0xbdce9a34	-0.10088006
171	0xbd85d67f	-0.065350525
172	0x3ed1e001	0.40991214
173	0xbe5f101e	-0.21783492
174	0x3d850071	0.06494225
175	0xbe7cdfb0	-0.24694705
176	0xbeb818a7	-0.35956308
177	0x3cd73147	0.026268614
178	0x3e3ef2cc	0.18647307
179	0xbca9a8fd	-0.020710463
180	0x3e82b2b3	0.25526962
181	0x3e9f94ed	0.3116831
182	0xbecbf9eb	-0.3983911
183	0xbdeb9e1e	-0.11504768
184	0x3e81e80d	0.25372353
185	0x3eebe7e1	0.46075347
186	0x3da522a8	0.08063251
187	0x3d9a8079	0.075440355
188	0x3ef028be	0.46906084
189	0x3dbbedaa	0.0917619
190	0x3ebaee43	0.36509904
191	0x3dcfac19	0.10140247
192	0xbe312422	-0.1729894
193	0xbe4f01b6	-0.20215496
194	0x3dc9cb37	0.09853213
195	0xbd11d182	-0.035600193
196	0xbeaa2c8c	-0.33237112
197	0x3eb71490	0.35757875
198	0xbe6a979b	-0.22909395
199	0x3e64f36d	0.22358485
200	0xbe76c154	-0.24097186
201	0xbe673598	-0.22579038
202	0x3e79c70f	0.24392341
203	0x3d4fc010	0.050720274
204	0x3e85618f	0.26050994
205	0x3f1adb0c	0.6049049
206	0xbea9464d	-0.33061448
207	0xbe79c5fa	-0.24391928
208	0xbda39316	-0.07987039
209	0xbe1d1bb6	-0.15342602
210	0xbdc9b3d1	-0.098487504
211	0x3df13d51	0.11779273
212	0x3cc8e60d	0.02452376
213	0xbe8b4353	-0.27199802
214	0xbe94975a	-0.29021722
215	0x3d567a80	0.05236292
216	0xbd8f1d81	-0.06988049
217	0xbe094826	-0.13406429
218	0xbeb9bcb5	-0.36276785
219	0xbea9fd70	-0.3320117
220	0x3ea683a5	0.32522312
221	0x3eb7ebf9	0.3592222
222	0x3db6faea	0.08934577
223	0x3e6528af	0.22378801
224	0x3dbf805f	0.09350657
225	0x3e80b460	0.25137615
226	0xbe2ce0c2	-0.16882613
227	0x3ebb66f3	0.36601982
228	0x3d035e0a	0.032072105
229	0x3d5bacb5	0.053631503
230	0xbe847af9	-0.2587507
231	0xbe310648	-0.17287552
232	0x3dbea8f7	0.09309571
233	0x3deaa647	0.11457496
234	0x3df105b2	0.117686644
235	0xbe7eb851	-0.24874999
236	0xbec5e267	-0.38649294
237	0xbd58b042	-0.052902468
238	0xbe672806	-0.22573861
239	0x3ea3e515	0.32010713
240	0x3e5b03be	0.21388146
241	0xbe2d94e8	-0.16951334
242	0x3e2a0723	0.16604285
243	0xbeb0ad09	-0.34507015
244	0x3e518fd1	0.20465018
245	0x3be0b746	0.0068577854
246	0xbe5c077c	-0.2148723
247	0xbd4cd32c	-0.050006077
248	0x3d7a81cc	0.06115894
249	0xbeb26064	-0.34839165
250	0x3e0f7b10	0.14011788
251	0xbc39f4ca	-0.011349866
252	0xbdf17c86	-0.11791329
253	0x3e840b36	0.25789803
254	0xbec8069f	-0.39067551
255	0x3e936467	0.28787538

linear_emb.2.bias f4 [32]
0	0x3a89b781	0.0010506959
1	0xbb6ce990	-0.0036149956
2	0x3d8c21a3	0.06842353
3	0x3ce9a918	0.028523013
4	0xbc1aefd4	-0.009456594
5	0x3c28f064	0.01031122
6	0x3c9f3951	0.01943651
7	0x3cbf1cb9	0.023329126
8	0x3d1ec792	0.038764544
9	0x3ce363fa	0.027757633
10	0x3bb666b4	0.0055664424
11	0xbd277488	-0.040882617
12	0xbccbd363	-0.02488107
13	0x3c4f27e5	0.012643789
14	0x3d01876c	0.03162329
15	0xbd1cabb3	-0.038249683
16	0x3c4de776	0.012567392
17	0xbd00b0c3	-0.031418573
18	0xbcc57d49	-0.024107592
19	0x3cca288c	0.024677537
20	0x3bb35abd	0.0054734633
21	0x3cbe9681	0.023265125
22	0xbd3613c5	-0.044452447
23	0xb84d53ea	-4.895396e-05
24	0x3c8c82ab	0.017152151
25	0x3d012faf	0.031539615
26	0xbb0fb9f3	-0.0021930903
27	0xbca107ae	-0.019656982
28	0x3d1fa909	0.038979564
29	0x3c9cc4bc	0.019136779
30	0xbcb0cc0a	-0.021581668
31	0xbc14f708	-0.0090921

multiregion_mixer.0.weight f4 [8, 4]
0	0xbf382898	-0.7193694
1	0x3eb18ea1	0.3467913
2	0x3ef3dba3	0.47628507
3	0x3ecb9423	0.39761457
4	0x3e2e1ce3	0.17003207
5	0xbe831bce	-0.2560715
6	0xbe84262d	-0.25810376
7	0x3d000f15	0.031264383
8	0xbea15ce7	-0.3151619
9	0x3eaef4c5	0.3417112
10	0xbf28b3c1	-0.6589928
11	0x3ed5569d	0.41667643
12	0xbefc41c7	-0.49268934
13	0x3f14ea14	0.58169675
14	0xbf0c8ca0	-0.54902077
15	0xbf25fea3	-0.6484167
16	0x3ef8b979	0.48579004
17	0x3ed3c424	0.4136058
18	0xbf27c746	-0.6553844
19	0x3d30b5a7	0.043141987
20	0xbe3b45af	-0.18288301
21	0x3e8b801e	0.27246183
22	0xbe94211b	-0.28931507
23	0xbee0fbd5	-0.43942133
24	0xbe90a9ce	-0.2825455
25	0xbf10fa84	-0.56632257
26	0xbe28330d	-0.16425724
27	0xbeaf0ed9	-0.34191015
28	0x3e67ceeb	0.22637527
29	0x3ee9f2ed	0.4569315
30	0x3ef3abee	0.4759211
31	0xbefe5a08	-0.49678063

multiregion_mixer.0.bias f4 [8]
0	0xbc11892a	-0.0088828
1	0x3d107ef8	0.035277337
2	0x3be4fe0c	0.0069882926
3	0xbe47ed15	-0.19524033
4	0xbb622e48	-0.003451245
5	0x3c922691	0.017840656
6	0x3e866779	0.26250818
7	0xbc167245	-0.009182517

multiregion_mixer.2.weight f4 [1, 8]
0	0x3ef77823	0.48333845
1	0xbf1e3ebb	-0.6181447
2	0xbf0057e3	-0.50134104
3	0x3f0aac01	0.5416871
4	0x3e7fc49c	0.24977344
5	0x3ea74d9b	0.32676396
6	0xbeeef010	-0.46667528
7	0x3f28c5cf	0.6592683

linear_out.0.weight f4 [64, 32]
0	0x3e51e328	0.2049681
1	0x3e28358e	0.1642668
2	0xbe7e1567	-0.24812852
3	0xbe203c94	-0.15648109
4	0x3e3b811e	0.18310973
5	0xbe8d9c0f	-0.27658126
6	0xbdabc0cf	-0.08386385
7	0x3df9c254	0.12195268
8	0xbd3ac9f9	-0.045602772
9	0xbe362ff9	-0.17791738
10	0xbe3bcdf3	-0.18340282
11	0x3e31ea6f	0.17374586
12	0xbe1b4e58	-0.15166605
13	0xbc8e08b7	-0.01733814
14	0xbe02197c	-0.12705034
15	0x3da2d319	0.0795042
16	0x3e5401c4	0.20703799
17	0xbe17807d	-0.14795108
18	0x3e118aea	0.14213148
19	0xbda6d58a	-0.08146198
20	0xbe7ea22f	-0.24866556
21	0xbe3baabf	-0.18326853
22	0xbdc47cf8	-0.095941484
23	0xbd7798ec	-0.060448572
24	0x3e2c0b73	0.16801243
25	0xbdbb46eb	-0.09144386
26	0x3d084142	0.03326536
27	0x3e549619	0.20760383
28	0x3e48c270	0.19605422
29	0xbd91584d	-0.0709692
30	0xbdf86cbf	-0.12130117
31	0xbdf6bfba	-0.12048288
32	0x3d11c114	0.035584524
33	0x3e63d673	0.22249775
34	0x3d718096	0.05896052
35	0xbc524c7d	-0.012835619
36	0x3d140a30	0.036142528
37	0xbe2b57e5	-0.16732748
38	0xbe363dfb	-0.17797081
39	0x3e158ab8	0.14603698
40	0x3dded145	0.10879759
41	0x3e444285	0.19166
42	0xbdf0db39	-0.117605634
43	0xbd88053a	-0.06641622
44	0x3df66091	0.12030137
45	0xbe2bbb04	-0.1677056
46	0x3d3a18a2	0.045433648
47	0xbda77fae	-0.0817865
48	0x3da45183	0.080233596
49	0xbdb49917	-0.08818262
50	0xbcc34065	-0.023834417
51	0x3d915886	0.07096963
52	0xbdb972d6	-0.09055106
53	0xbe23aea9	-0.15984596
54	0xbd81141b	-0.06302663
55	0x3e450241	0.19239141
56	0x3da7ec26	0.081993386
57	0x3d363b26	0.044490002
58	0xbba930ab	-0.0051632724
59	0xbc966b80	-0.018361807
60	0xbe3da498	-0.18519819
61	0xbbc8e3c6	-0.0061306683
62	0xbe484035	-0.19555743
63	0x3e72cce9	0.2371098
64	0xbe39a327	-0.18128644
65	0x3e578508	0.21046841
66	0xbe3911ef	-0.18073247
67	0xbe2c3304	-0.16816336
68	0xbe96600a	-0.29370147
69	0x3e27f9a4	0.16403824
70	0xbdac96e3	-0.08427217
71	0x3e037e14	0.12841064
72	0xbe8115c3	-0.25211915
73	0xbe5d3bf9	-0.21604909
74	0xbe756099	-0.2396263
75	0x3d15f174	0.03660722
76	0x3dcfac54	0.10140291
77	0xbd13044e	-0.035892777
78	0xbe84ab4e	-0.25911945
79	0x3e343d01	0.17601396
80	0xbe55e721	-0.2088895
81	0x3de32360	0.110907316
82	0xbcdaf44f	-0.026727824
83	0x3e13661f	0.14394425
84	0x3d945054	0.07241884
85	0xbe911251	-0.28334287
86	0x3df4be52	0.11950363
87	0xbd96da15	-0.073658146
88	0xbe456685	-0.1927739
89	0xbe5a2d88	-0.21306431
90	0xbe30b14b	-0.17255132
91	0x3e7d1bf3	0.24717693
92	0x3d59a8da	0.053139545
93	0xbe5e9a0b	-0.2173845
94	0x3df74266	0.12073211
95	0x3e453d86	0.1926175
96	0x3ce550ce	0.027992632
97	0xbdadac33	-0.0848011
98	0x3e3dba34	0.18528062
99	0x3c57e4f3	0.013177144
100	0xbe0436ca	-0.12911525
101	0x3df5ed11	0.120081075
102	0x3ce751df	0.028237281
103	0x3e462569	0.19350208
104	0xbd2160e5	-0.039399046
105	0x3e1d5b9f	0.15366982
106	0x3e24cc2c	0.1609351
107	0x3d9ed8f7	0.077562265
108	0xbd450bf8	-0.048107117
109	0xbd02ba30	-0.031915843
110	0x3da3c242	0.07996036
111	0x3e181349	0.14851107
112	0x3e8ecf71	0.2789264
113	0x3e5b5ed7	0.21422897
114	0xbe0e257a	-0.13881484
115	0xbddbe90e	-0.10737811
116	0xbdbd8ac5	-0.09254984
117	0x3e6bf9b8	0.23044479
118	0xbd1805f2	-0.037115045
119	0x3d420ebb	0.04737733
120	0xbd4d3f98	-0.050109476
121	0xbdc8b2e7	-0.09799748
122	0xbd7fa514	-0.06241329
123	0x3e631712	0.2217677
124	0x3e65a1d2	0.22425011
125	0x3e4c9fdd	0.19982858
126	0xbd4df07b	-0.05027817
127	0xbdd8bf16	-0.10583322
128	0x3e4a492e	0.19754478
129	0x3dda253d	0.10651634
130	0xbcf7eecf	-0.03026524
131	0xbe90e3b9	-0.2829874
132	0xbe0f7fc0	-0.14013577
133	0x3d7d3c1e	0.06182491
134	0x3e1bf35b	0.15229551
135	0x3c9cd26c	0.019143306
136	0x3c9706e3	0.018435901
137	0xbd125009	-0.03572086
138	0xbe84a053	-0.25903568
139	0xbe313274	-0.17304403
140	0xbbcdad5b	-0.006276769
141	0xbda9efaf	-0.08297669
142	0x3ccc623d	0.024949187
143	0x3e82e201	0.25563052
144	0xbe8362ad	-0.2566122
145	0x3dd4bd0d	0.10387621
146	0x3dea7dd4	0.11449781
147	0x3e0555e1	0.13021041
148	0xbc9a38c7	-0.018825902
149	0xbe5d011b	-0.21582453
150	0x3e75fe16	0.24022707
151	0x3e136674	0.14394552
152	0xbe8412f4	-0.2579571
153	0x3e08b395	0.13349755
154	0x3d8de28e	0.069279775
155	0xbdcbab04	-0.09944728
156	0x3d6bc8a8	0.057564408
157	0x3e0bfbc3	0.13670258
158	0xbe06c25e	-0.13160083
159	0xbe5056a3	-0.2034555
160	0x3e5b02b7	0.21387754
161	0x3d727878	0.05919692
162	0x3ce7a81b	0.028278401
163	0x3e14ce53	0.14531831
164	0xbd777ebd	-0.0604236
165	0xbec21994	-0.3791014
166	0x3e1a4989	0.15067114
167	0xbcd31028	-0.02576454
168	0xbe7ad70c	-0.24496096
169	0xbe8f64d7	-0.28006622
170	0x3e710a40	0.23539066
171	0xbdd9555f	-0.10611986
172	0xbe0d19a6	-0.13779315
173	0x3d9cbc33	0.07653084
174	0x3d45fc77	0.048336472
175	0xbde3ad59	-0.11117048
176	0x3db5d40a	0.08878334
177	0x3d00251f	0.0312854
178	0x3e119fa2	0.14221051
179	0xbe22e885	-0.15909012
180	0xbdf866ec	-0.12129006
181	0x3e047e5e	0.1293883
182	0x3d435a84	0.047693744
183	0xbdd024c9	-0.10163266
184	0xbd708102	-0.05871678
185	0xbe67527d	-0.2259006
186	0x3e1dc91d	0.1540875
187	0x3e033265	0.12812193
188	0xbe4cdee4	-0.20006901
189	0xbe1df8a9	-0.15426888
190	0x3de90ba6	0.11379175
191	0xbe6a404c	-0.2287609
192	0x3e4c18a2	0.19931272
193	0x3c9b4ce4	0.018957563
194	0x3df84e2e	0.121242866
195	0xbc1df560	-0.0096410215
196	0x3e02105e	0.12701556
197	0xbd17a33b	-0.037020903
198	0xbe80220f	-0.25025985
199	0x3e6e3783	0.23263364
200	0x3e13257f	0.14369772
201	0x3e58f17b	0.21185867
202	0x3c62ffaa	0.0138549
203	0x3e43205e	0.19055316
204	0x3e3bbe54	0.18334323
205	0xbd9d7dc9	-0.07690007
206	0x3e17ddbd	0.1483068
207	0x3e2db921	0.16965152
208	0xbb18f49f	-0.0023339165
209	0x3e3c27f0	0.1837461
210	0x3dac9c1b	0.08428212
211	0x3e13638e	0.14393446
212	0xbe57962c	-0.2105338
213	0x3d9372dd	0.07199643
214	0x3de03eae	0.10949455
215	0xb994d392	-0.00028386392
216	0x3dd889e4	0.105731755
217	0x3e4e21f5	0.20130141
218	0x3e020810	0.12698388
219	0xbe84644f	-0.2585778
220	0xbd4ab21d	-0.04948627
221	0x3e3f5cd5	0.18687756
222	0xbe5c33cd	-0.21504135
223	0x3def894c	0.11696109
224	0x3bb011bb	0.0053732074
225	0x3c18d845	0.009328906
226	0xbd9b4d68	-0.075831234
227	0x3d48e881	0.049049858
228	0xbcb853b0	-0.022500843
229	0x3d88738a	0.06662662
230	0x3e9585a5	0.29203525
231	0x3da0eccc	0.078576654
232	0xbe436b14	-0.19083816
233	0x3e66e839	0.22549523
234	0x3d853403	0.06504061
235	0xbdfd60e1	-0.12371994
236	0xbe6e8778	-0.23293865
237	0x3e4cebc6	0.20011815
238	0xbdeddf66	-0.116148755
239	0xbea04943	-0.31305894
240	0xbd3738e3	-0.044731986
241	0x3e5b6365	0.21424635
242	0x3dcafe72	0.09911813
243	0x3c95fc6f	0.018308846
244	0x3e41869a	0.18899003
245	0xbe3e1ca8	-0.18565619
246	0x3daf8ef8	0.08572191
247	0xbe5deee3	-0.2167316
248	0x3ed10147	0.40821287
249	0x3d9f7a13	0.07786956
250	0x3e66c268	0.22535098
251	0x3c8c0414	0.017091788
252	0x3c8850f3	0.016640162
253	0x3d252ed3	0.04032786
254	0x3ac0a48e	0.0014697479
255	0x3e9bec2c	0.30453622

linear_out.0.bias f4 [64]
0	0xbcaf6826	-0.021411967
1	0x3d4e57ec	0.050376818
2	0xbd021dfc	-0.031766877
3	0x3d37ab8f	0.044841345
4	0xbc8e2fe5	-0.017356822
5	0xbc7d47c7	-0.015459008
6	0x3a78e416	0.00094944367
7	0x3ce07c72	0.02740309
8	0xbbb9793c	-0.005660204
9	0x3c62b5d3	0.013837296
10	0xbc95215e	-0.018204387
11	0x3c2114fc	0.009831663
12	0xbcfc4a37	-0.030797107
13	0x3b41b57e	0.002955764
14	0xbc3f3bc8	-0.011671968
15	0x3c18bf25	0.009322916
16	0xbc2bc67a	-0.010484332
17	0x3cdffae0	0.027341306
18	0xbc117f6c	-0.008880477
19	0x3cba5e5a	0.022750068
20	0xbc3d12eb	-0.011540155
21	0xbc81b551	-0.015833529
22	0xbb1a4535	-0.0023539786
23	0xbbb6eaa5	-0.005582171
24	0x3bdd2716	0.006749044
25	0x3beb35eb	0.0071780584
26	0x3c13b68b	0.00901569
27	0xbbf8ee39	-0.0075967577
28	0x3c5a30ce	0.0133173
29	0xbcb1b464	-0.021692462
30	0x3ca85910	0.02055028
31	0x3ca200f7	0.01977585
32	0x3c699cd3	0.014258581
33	0x3cae9f15	0.02131609
34	0x3cc125e7	0.023577644
35	0x3bf4b8b4	0.0074683074
36	0x3c39c4c8	0.01133842
37	0x3cfe6e93	0.031058585
38	0xbc88b98b	-0.016690036
39	0xbc931c74	-0.017957903
40	0x3d33c018	0.043884367
41	0xbc317799	-0.010831737
42	0xbbd27aee	-0.0064233458
43	0x3c85cd0e	0.01633313
44	0x3cf42946	0.029804837
45	0xbb83d54a	-0.004023229
46	0x3b1c2663	0.0023826591
47	0x3c4014a6	0.011723673
48	0x3bb814e7	0.005617726
49	0xbcdeb664	-0.02718658
50	0x3cb26af7	0.02177952
51	0x3b5ecff0	0.0033998452
52	0x3d58218f	0.05276638
53	0x3be0cfde	0.006860717
54	0x3d3abe09	0.045591388
55	0x3bbde019	0.005794537
56	0x3cbb2185	0.022843132
57	0x3cdc9ea4	0.026931114
58	0xbca17b1f	-0.019712029
59	0x3d0da2d8	0.034579128
60	0x3d22a672	0.039709516
61	0x3cc8544a	0.024454255
62	0x3d071e66	0.032987975
63	0xbc5621ec	-0.013069611

linear_out.2.weight f4 [64, 64]
0	0xbd3d8ff0	-0.046279848
1	0x3e033f7f	0.1281719
2	0x3e2e446a	0.17018285
3	0xbe1dfdd2	-0.15428856
4	0xbdf8fc13	-0.12157454
5	0x3af8219b	0.0018930914
6	0x3e1e8629	0.15480866
7	0xbcc57f50	-0.024108559
8	0xbe34df22	-0.17663243
9	0x3da8ebeb	0.08248123
10	0xbd8cd55f	-0.06876635
11	0x3cd526fa	0.026019562
12	0x3d0dfcac	0.034664795
13	0xbd83d2c2	-0.06436683
14	0xbe50b570	-0.20381713
15	0x3da00c68	0.07814866
16	0xbe31b521	-0.17354251
17	0xbe3bf628	-0.1835562
18	0x3dbd875a	0.09254332
19	0xbe5452d1	-0.20734717
20	0x3e1ee814	0.15518218
21	0x3de1dc13	0.11028304
22	0x3e091054	0.13385135
23	0xbdbbca55	-0.09169451
24	0xbe58dd1d	-0.21178098
25	0xbd3c1596	-0.045919023
26	0x3e0f847c	0.14015383
27	0xbe519e23	-0.2047048
28	0x3d0ddbc0	0.034633398
29	0x3d192c23	0.037395608
30	0x3e257e27	0.16161405
31	0xbe1bee9c	-0.15227741
32	0xbde514e5	-0.11185626
33	0x3e1e9227	0.1548544
34	0xbe5fb81f	-0.2184758
35	0x3ddb2489	0.10700328
36	0x3dad1089	0.084504195
37	0xbccbc4cc	-0.024874114
38	0x3d9ccf26	0.07656698
39	0xbd6a4adc	-0.057200298
40	0x3dcd1907	0.10014539
41	0x3b310d33	0.0027015924
42	0xbdeb68c9	-0.114945956
43	0xbe3154e4	-0.1731754
44	0xbd11099f	-0.035409566
45	0xbb5ab08d	-0.0033369393
46	0x3e22c4c0	0.15895367
47	0xbded0281	-0.11572743
48	0xbdfac00a	-0.1224366
49	0x3c90f136	0.017693143
50	0x3d772a65	0.060343165
51	0x3e03913c	0.12848371
52	0xbae25897	-0.0017268833
53	0xbd88a308	-0.06671721
54	0x3df8550c	0.121255964
55	0x3da488c3	0.08033898
56	0xbd8bd07a	-0.06826873
57	0x3e0be154	0.13660175
58	0x3dcd4358	0.100226104
59	0xbdfe7776	-0.12425129
60	0x3e295eff	0.16540144
61	0x3e1c3498	0.15254438
62	0xbda5db4d	-0.08098469
63	0xbe3b2628	-0.18276274
64	0x3e03c5f0	0.12868476
65	0x3de97ce9	0.11400778
66	0xbdf69b0b	-0.12041291
67	0xbe483f9d	-0.19555517
68	0xbe276716	-0.16347918
69	0x3e25f830	0.16207957
70	0x3e546903	0.20743184
71	0xbbd98713	-0.0066384166
72	0xbcc46a95	-0.023976604
73	0x3d64456f	0.05573028
74	0xbe2d1522	-0.16902593
75	0xbe3381fe	-0.17530057
76	0xbdae8022	-0.08520533
77	0xbe3661c6	-0.17810735
78	0xbda28115	-0.07934777
79	0x3e23e89c	0.16006702
80	0x3e6e6f3a	0.23284617
81	0xbcff6b58	-0.031179115
82	0x3d8240f4	0.06360045
83	0xbd520ec8	-0.051283628
84	0x3dabe724	0.08393696
85	0x3dbc6d76	0.092005655
86	0x3e40642e	0.18788216
87	0x3dcf28fe	0.101152405
88	0x3e146169	0.14490284
89	0x3e122ccc	0.14274901
90	0xbd6092a2	-0.05482734
91	0x3e3d108a	0.1846334
92	0x3daec091	0.08532823
93	0xbe44fab0	-0.19236255
94	0x3dcf21f1	0.10113896
95	0xbda01d7d	-0.078181244
96	0xbe4710a1	-0.19439937
97	0xbdd07457	-0.1017844
98	0x3e46ed41	0.19426443
99	0xbe4f273c	-0.2022981
100	0xbe665a3e	-0.22495362
101	0x3ddeca3b	0.10878416
102	0x3e1839e4	0.14865834
103	0x3db6c25f	0.08923792
104	0xbda887c2	-0.08229019
105	0xbdbb6ab8	-0.09151214
106	0xbe3027ba	-0.17202654
107	0xbdfa7e92	-0.122311726
108	0x3d96f731	0.07371367
109	0x3e043a01	0.12912752
110	0xbe36ff6d	-0.17870875
111	0xbc987a47	-0.018612994
112	0xbe44b5cc	-0.19209975
113	0x3d14fae6	0.036372088
114	0xbd54757d	-0.051869858
115	0x3e518731	0.20461728
116	0xbc18af4a	-0.009319136
117	0x3e4d929c	0.20075458
118	0x3d11d5ec	0.035604402
119	0x3de3175c	0.1108844
120	0x3d9f1bea	0.07768996
121	0xbe1b9ef1	-0.1519735
122	0xbdfea096	-0.12432973
123	0xbdd3ce4e	-0.10342084
124	0xbdb72e87	-0.08944421
125	0x3e44e7ed	0.19229098
126	0xbe223a25	-0.15842493
127	0x3e635ed0	0.22204137
128	0xbd9d6c36	-0.07686655
129	0x3defd15d	0.11709855
130	0x3e313f00	0.17309189
131	0xbe339ab8	-0.1753949
132	0x3dad74b2	0.084695235
133	0x3e174465	0.14772184
134	0xbc3482f2	-0.011017548
135	0x3e8b2178	0.27173972
136	0xbcca40e2	-0.024689142
137	0x3e1ab9ea	0.15109983
138	0x3e46b4be	0.19404885
139	0x3e05b07d	0.13055606
140	0xbd8e9228	-0.06961471
141	0x3d66a48d	0.05630927
142	0x3e669a4a	0.22519794
143	0xbe15fdac	-0.1464755
144	0xbd9b33f3	-0.07578268
145	0x3e1c8e5d	0.15288682
146	0xbe2716d5	-0.16317303
147	0x3e44942d	0.1919715
148	0x3ddc4713	0.10755744
149	0x3e64fe23	0.2236257
150	0xbc8688be	-0.016422626
151	0x3db4cc4a	0.088280275
152	0xbddaeec7	-0.106900744
153	0x3d286a81	0.041117195
154	0xbe0ff2b0	-0.14057422
155	0x3e4eb5dc	0.20186561
156	0x3e6cdb80	0.23130608
157	0x3de39d9b	0.11114045
158	0x3d35fbe3	0.04442967
159	0xbe3262b7	-0.17420469
160	0x3e3aa91d	0.18228574
161	0x3d6156a9	0.055014286
162	0xbe514f50	-0.20440412
163	0x3d4672d0	0.048449337
164	0xbb956cd2	-0.0045600915
165	0x3e4466e0	0.19179869
166	0x3e46ba8b	0.19407098
167	0xbe3d39e2	-0.18479112
168	0x3e2d69a6	0.16934833
169	0x3d3a2a18	0.0454503
170	0x3e0a1ff0	0.13488746
171	0xbe06b5c0	-0.1315527
172	0x3d07ab7d	0.03312253
173	0x3e32cabc	0.1746015
174	0xbe3231c7	-0.17401801
175	0xbe4f0a23	-0.2021871
176	0x3dc1599b	0.09440919
177	0x3e1fba0a	0.15598312
178	0xbe0c0b74	-0.13676244
179	0x3dcac377	0.09900563
180	0x3e123620	0.1427846
181	0x3def9cd8	0.116998374
182	0xbe233fd3	-0.15942316
183	0x3e23b647	0.15987502
184	0x3de52a9f	0.1118977
185	0x3e19df4a	0.15026584
186	0xbd9b956f	-0.075968616
187	0xbe0c94c0	-0.13728619
188	0x3e19000e	0.14941427
189	0x3dcfcf80	0.10146999
190	0x3e5fb87f	0.21847723
191	0xbd351d94	-0.04421766
192	0x3e4b9a8d	0.19883175
193	0xbe3504d3	-0.17677622
194	0xbe604921	-0.21902896
195	0xbc924f9a	-0.017860223
196	0xbe2dd895	-0.1697715
197	0x3dbfb919	0.093614765
198	0xbd91719d	-0.07101748
199	0xbc0a28f8	-0.008432619
200	0xbddc85c7	-0.107677035
201	0xbde01734	-0.10941926
202	0xbcf738c6	-0.030178439
203	0x3e2b3175	0.16718085
204	0x3da34420	0.07971978
205	0x3e2a9f01	0.16662218
206	0x3dc3975e	0.095503554
207	0x3c13f2f7	0.009030095
208	0x3cc136fa	0.023585785
209	0xbe3a79fc	-0.18210596
210	0xbd648336	-0.055789195
211	0x3df5989e	0.11992
212	0x3df2622b	0.1183513
213	0x3e4164d7	0.18886124
214	0x3d48d681	0.049032692
215	0x3e276d8f	0.16350387
216	0x3d9726c7	0.07380443
217	0xbc508ddc	-0.012729134
218	0xbe2278bf	-0.15866373
219	0xbdb6addc	-0.0891988
220	0x3d867d45	0.06566862
221	0xbc83bdb7	-0.016081674
222	0x3d720117	0.05908307
223	0xbe4487a0	-0.19192362
224	0x3e351fbe	0.1768789
225	0xbe17f8a6	-0.14840946
226	0xbe39043b	-0.1806802
227	0x3ccec2f5	0.025239447
228	0xbdd1c58c	-0.10242757
229	0xbd7d5743	-0.061850797
230	0xbe74a48b	-0.23890893
231	0x3d939adc	0.072072715
232	0xbe6a2175	-0.22864325
233	0x3e226d30	0.15861964
234	0xbd8b41cf	-0.06799661
235	0x3dbb1d92	0.091364995
236	0x3dce2146	0.1006494
237	0xbd343e23	-0.04400457
238	0x3b3c9df1	0.0028780664
239	0xbdde74dc	-0.10862133
240	0xbd8dab13	-0.069173954
241	0xbde204a0	-0.110360384
242	0x3e29df00	0.16588974
243	0x3dd4612d	0.10370097
244	0x3ddd970a	0.10819824
245	0xbddc8f59	-0.10769529
246	0x3e4144e9	0.18873943
247	0xbce8ec85	-0.028433094
248	0x3e06be29	0.13158478
249	0x3e52147f	0.20515631
250	0x3c940137	0.018066986
251	0x3def66a2	0.116894975
252	0x3e1db900	0.15402603
253	0x3dfa6f1a	0.12228222
254	0x3dcf86f6	0.10133164
255	0xbe4109ec	-0.18851441

linear_out.2.bias f4 [64]
0	0xbc2d04b6	-0.010560205
1	0x3bac1678	0.005251702
2	0x3cb152cd	0.021645928
3	0xbc000f6d	-0.007816178
4	0x3c1b442b	0.009476702
5	0x3d097099	0.033554647
6	0x3c741153	0.014896709
7	0x3c376521	0.011193545
8	0xbbbdfd16	-0.0057979925
9	0x3cb36e6d	0.021903241
10	0x3cd14069	0.025543408
11	0xbb96c26c	-0.0046008136
12	0xbb986707	-0.0046509537
13	0xbba45f36	-0.005016233
14	0x3bf36079	0.007427272
15	0x39e15ddc	0.00042985275
16	0xbb1ee8fa	-0.0024247752
17	0xbc105d2c	-0.008811276
18	0xbc1f659e	-0.009728817
19	0xbbeb14a8	-0.0071740933
20	0xbcfefc78	-0.031126246
21	0xbba3b7ea	-0.0049962895
22	0x3c29e579	0.010369652
23	0x3cc73c91	0.024320873
24	0x3b71166c	0.0036787046
25	0x3d1d3b97	0.038386907
26	0xbbad5597	-0.005289744
27	0xbc0c9203	-0.008579734
28	0x3b689dda	0.0035494477
29	0x3d13f4ed	0.03612225
30	0x3c8e6299	0.017381
31	0xbba0cc13	-0.00490714
32	0x3b8a73ed	0.004225245
33	0x3b96415e	0.004585429
34	0xbb045d34	-0.0020197155
35	0x3c01da31	0.007925556
36	0x3ca8b30f	0.020593194
37	0x3b66dc04	0.0035226354
38	0x3cc05af6	0.023480874
39	0x3cec5e49	0.028853552
40	0x3d25eaf8	0.040507287
41	0xbc454676	-0.012040725
42	0x39b309a4	0.00034148723
43	0x3ce5ec4a	0.028066773
44	0xbc4058ed	-0.011739952
45	0x3c57ef62	0.013179632
46	0xbc8fb0c5	-0.017540345
47	0x3cac4907	0.021030916
48	0xba0d38e3	-0.00053872
49	0x3c3d9b3a	0.011572653
50	0x3c033bc3	0.008009854
51	0x3cfe6e96	0.03105859
52	0x3c04fc74	0.00811683
53	0x3c9eed2b	0.0194002
54	0x3d2702d6	0.04077419
55	0xbc7a3843	-0.015272203
56	0x3c9e3b84	0.019315489
57	0xbc20e64f	-0.009820535
58	0x3cf18240	0.029481053
59	0xba0526ce	-0.000507933
60	0x3d10ba03	0.035333645
61	0x3d4d908e	0.050186686
62	0x3c3f890f	0.011690392
63	0x3b0a2b3c	0.0021082899

linear_out.4.weight f4 [64, 64]
0	0x3dda0302	0.10645105
1	0xbe7acfd3	-0.24493341
2	0x3c7acfcc	0.015308332
3	0xbdd4306d	-0.10360799
4	0xbc6bdb38	-0.014395528
5	0x3bb14a45	0.005410465
6	0xbe1adf0e	-0.15124151
7	0xbde75eb9	-0.11297364
8	0x3e2f943e	0.17146394
9	0xbe09d87c	-0.13461488
10	0xbb7b4931	-0.0038343186
11	0xbe6bf6ae	-0.2304332
12	0xbe1b37b5	-0.1515797
13	0x3e55f85f	0.20895527
14	0xbe45c7a8	-0.19314444
15	0xbda3e47f	-0.080025665
16	0xbdfdff72	-0.12402238
17	0xbe1b78a1	-0.15182735
18	0xbe1c7907	-0.15280543
19	0xbde1172c	-0.10990748
20	0x3e1211e4	0.14264637
21	0x3e84f16a	0.25965434
22	0xbdd64c07	-0.1046372
23	0x3babefaa	0.005247076
24	0xbe2b8ef3	-0.1675375
25	0x3ca86bc5	0.020559201
26	0xbe0dcd9c	-0.13847965
27	0x3e1cb82b	0.1530463
28	0x3e3fe4d7	0.18739639
29	0x3e4234ac	0.18965405
30	0x3b03269a	0.0020012022
31	0xbd5dec78	-0.054180592
32	0xbe1268fa	-0.14297858
33	0x3dcb7011	0.09933484
34	0x3e7da427	0.2476965
35	0xbdf6ee56	-0.12057178
36	0x3e343505	0.1759835
37	0x3d0d6a43	0.034525167
38	0x3d81a637	0.06330531
39	0x3d7edd51	0.062222783
40	0x3daf3db4	0.08556691
41	0x3dbddb63	0.0927036
42	0x3d698262	0.05700911
43	0x3e48cc1f	0.19609116
44	0xbdbb266e	-0.09138189
45	0x3e1babef	0.15202306
46	0x3e5acfe0	0.2136836
47	0x3de9bb98	0.11412734
48	0x3e415c25	0.18882807
49	0xbe311f45	-0.17297085
50	0x3de80df1	0.11330784
51	0xbde05312	-0.109533444
52	0xbdb41d98	-0.08794707
53	0xbdfd9461	-0.12381817
54	0x3e2c5d60	0.16832495
55	0x3dbe2a6f	0.09285437
56	0xbe052df2	-0.13005808
57	0xbbb6d395	-0.0055794218
58	0x3e287ae9	0.16453137
59	0x3d64b44c	0.055836007
60	0x3d522edd	0.051314224
61	0xbe04ec91	-0.12980868
62	0x3c3b81fb	0.011444564
63	0xbe12ad38	-0.1432389
64	0x3e3b8d71	0.18315674
65	0x3e5343a1	0.20631267
66	0x3e39fbac	0.18162411
67	0x3e4d623d	0.20057006
68	0xbdea90ff	-0.11453437
69	0xbe170067	-0.14746247
70	0x3e5ddb0c	0.21665591
71	0x3e27e379	0.16395368
72	0xbe077b8b	-0.13230722
73	0x3e468a67	0.19388734
74	0x3e2853ca	0.16438213
75	0xbe4be5d6	-0.19911894
76	0xbe032049	-0.12805285
77	0x3b8737ff	0.0041265483
78	0xbe36cfb8	-0.17852676
79	0x3e085dee	0.13317081
80	0xbd6288ee	-0.055306368
81	0x3e5b2b5c	0.21403259
82	0x3e52073f	0.20510577
83	0xbe2c7655	-0.16842015
84	0xbe08c712	-0.1335719
85	0xbb80c181	-0.0039293175
86	0x3e33dd75	0.17564948
87	0x3d502094	0.05081232
88	0xbd929e80	-0.07159138
89	0x3e359d0d	0.17735691
90	0x3e5a9e77	0.21349512
91	0xbd655344	-0.05598761
92	0xbda90df0	-0.082546115
93	0x3dd1b35b	0.102392875
94	0x3e5fb3ee	0.21845981
95	0x3ddd58b0	0.108079314
96	0x3e402bb6	0.18766674
97	0xbdd78998	-0.10524291
98	0x3e156e9b	0.14592974
99	0x3db60e5a	0.08889456
100	0x3de47a5e	0.11156152
101	0x3e646be7	0.22306786
102	0x3df99fbb	0.12188669
103	0x3e0c03f3	0.13673382
104	0x3c0830d7	0.008312426
105	0xbe2cfc5b	-0.16893141
106	0x3e07a1b6	0.13245282
107	0x3e40ce63	0.1882873
108	0xbdc6b7bd	-0.09703014
109	0xbe2b86a5	-0.16750582
110	0xbd63880d	-0.05554967
111	0x3e23e0d7	0.16003738
112	0xbe31e8b3	-0.17373924
113	0x3d52e1e9	0.051484976
114	0xbda44396	-0.080207035
115	0x3da77480	0.081765175
116	0xbe34bb34	-0.17649537
117	0xbde762ac	-0.11298117
118	0x3e1a5e7a	0.15075102
119	0x3e40ed21	0.18840457
120	0x3e523d69	0.20531239
121	0xbc9c1981	-0.01905513
122	0xbd907a81	-0.07054616
123	0x3e666ac6	0.22501668
124	0x3dcef515	0.101053394
125	0x3d400dc0	0.046888113
126	0xbde322af	-0.110906
127	0x38974e74	7.214854e-05
128	0xbe0a0c93	-0.13481359
129	0xbe029b62	-0.12754586
130	0xbd0ded45	-0.034650106
131	0xbe2a0ac1	-0.16605665
132	0xbdacb4b2	-0.084329024
133	0x3d5550ec	0.052079126
134	0x3dcbcd56	0.09951274
135	0x3d8befdf	0.06832861
136	0x3d921071	0.07132042
137	0x3d990017	0.0747072
138	0x3d4c1da9	0.049832974
139	0xbdbc4e3d	-0.0919461
140	0x3e1aceca	0.15117946
141	0xbd4c95b5	-0.04994746
142	0xbc29692d	-0.010340017
143	0x3d6bad89	0.057538543
144	0x3c4de55e	0.012566892
145	0x3de0c679	0.10975356
146	0xbe1c2bee	-0.15251133
147	0xbd539dcd	-0.051664162
148	0xbe198b98	-0.14994657
149	0x3dc77004	0.09738162
150	0xbd740ff2	-0.05958552
151	0x3da35ad1	0.07976306
152	0x3c0b87f7	0.008516303
153	0xbd93d62c	-0.072185844
154	0xbc89b820	-0.01681143
155	0x3e045367	0.1292244
156	0xbd902dfd	-0.070400216
157	0x3de58c9e	0.11208461
158	0x3e180791	0.14846636
159	0xbbda43a5	-0.006660896
160	0xbe3cf7aa	-0.18453851
161	0x3e1240fe	0.14282605
162	0x3dd3931b	0.103307925
163	0x3d49912a	0.049210705
164	0xbe07cfd9	-0.13262881
165	0xbc34c1fb	-0.011032577
166	0xbd1c2d7c	-0.038129315
167	0xbe2b9837	-0.16757284
168	0xbdf8174e	-0.1211382
169	0xbe329c6a	-0.1744248
170	0x3db19690	0.08671296
171	0xbe318bd5	-0.17338498
172	0xbe1dd33d	-0.15412612
173	0xbe53ccfd	-0.20683666
174	0xbd778ad2	-0.060435124
175	0x3e01dfa5	0.1268297
176	0x3cb66560	0.022265136
177	0xbe02c173	-0.12769108
178	0x3e060a24	0.13089806
179	0xbd0ce0e8	-0.034394175
180	0xbd1407c4	-0.03614022
181	0x3d9a3bc2	0.07530929
182	0xbe5b3d89	-0.21410193
183	0xbc905e63	-0.017623132
184	0xbe5af009	-0.21380629
185	0xbe4c470a	-0.19948974
186	0xbe294c3a	-0.16532984
187	0xbdb9ad2d	-0.09066234
188	0xbd4d12dd	-0.050066818
189	0xbd5066f1	-0.050879423
190	0xbd26a8b4	-0.04068823
191	0xbd2fe62c	-0.04294412
192	0x3d45e195	0.048310835
193	0x3d4a7b4e	0.049434
194	0xbd984976	-0.074358866
195	0xbe6052f7	-0.21906649
196	0xbdebedd8	-0.115199745
197	0xbe5309b4	-0.2060917
198	0x3de66721	0.11250139
199	0x3d30fa64	0.04320754
200	0x3e39108b	0.18072717
201	0xbc16df96	-0.0092085805
202	0xbe4ba7a4	-0.19888169
203	0x3d9f96bd	0.07792423
204	0xbe08459e	-0.13307807
205	0xbdda6b9c	-0.10665056
206	0x3df0fca2	0.11766936
207	0x3e2f0c13	0.1709445
208	0x3e0c4bc5	0.13700779
209	0xbe3ffd09	-0.18748869
210	0x3e214f0b	0.15752809
211	0x3da5e8c6	0.08101039
212	0xbe530bcf	-0.20609973
213	0x3e0451f4	0.12921888
214	0xbe1bc40e	-0.15211508
215	0xbdd071c8	-0.10177952
216	0xbe04cc8d	-0.12968655
217	0xbe36d03b	-0.17852871
218	0xbe2f1578	-0.17098033
219	0x3e4f6496	0.20253214
220	0xbe336572	-0.17519167
221	0xbe5f9438	-0.21833885
222	0xbe07683e	-0.13223359
223	0xbe6db0db	-0.23211996
224	0xbe459ce6	-0.19298133
225	0x3d7273ad	0.05919235
226	0x3dd58c20	0.10427117
227	0x3d3b6bc2	0.045757063
228	0xbe418033	-0.1889656
229	0xbd2b6cd8	-0.04185185
230	0x3d201ef9	0.039092038
231	0xbe7339f3	-0.23752575
232	0xbd7452e5	-0.059649367
233	0xbd559bf1	-0.05215067
234	0x3e2c3fec	0.1682126
235	0x3e2cb684	0.16866499
236	0xbcdd8af2	-0.027043793
237	0x3e10d7c3	0.14144807
238	0xbe14cd9b	-0.14531557
239	0x3dcb378f	0.09922706
240	0xbd794371	-0.060855333
241	0xbca9d0f5	-0.020729521
242	0x3e0202fe	0.12696454
243	0x3e020ab2	0.12699392
244	0xbdc7af31	-0.09750212
245	0xbe07eb29	-0.132733
246	0x3d9e240b	0.077217184
247	0x3e2a30ea	0.16620222
248	0xbe566bf5	-0.2093962
249	0xbe169d51	-0.14708449
250	0x3da0a9f9	0.0784492
251	0x3d33e8fd	0.043923367
252	0x3e280da7	0.16411458
253	0x3da6210a	0.081117705
254	0xbd77a0f3	-0.060456228
255	0xbd013ada	-0.031550266

linear_out.4.bias f4 [64]
0	0x3c195f54	0.009361107
1	0x3d0bf2d6	0.034167133
2	0x3bd28cff	0.0064254995
3	0xbc169d03	-0.009192708
4	0xbc056381	-0.008141399
5	0x3c11ed8d	0.008906734
6	0xbc48b00f	-0.012249007
7	0xba6b17e2	-0.00089680974
8	0x3bded64d	0.006800449
9	0x3cd37df5	0.025816897
10	0xbc4f7c6d	-0.012663943
11	0x3c838093	0.01605252
12	0x3c48671f	0.012231617
13	0x3bc7be61	0.006095693
14	0xbc804935	-0.015659908
15	0xbccb8642	-0.024844293
16	0xba46f718	-0.00075899204
17	0x3c504e6b	0.012714009
18	0xbc9346ff	-0.01797819
19	0x3cb48fac	0.022041164
20	0x3ba39f28	0.004993338
21	0x3b67c5af	0.0035365631
22	0x3cfa5210	0.030556709
23	0x3d1a0ba6	0.037608765
24	0x3bae1d00	0.0053135157
25	0x3cbd07f2	0.023075078
26	0x3c3fce9b	0.011706973
27	0xbc127113	-0.008938092
28	0x3c3b6bda	0.011439288
29	0x3b01a4af	0.0019781997
30	0xbcbd4b23	-0.023107117
31	0x3c861a03	0.016369825
32	0x3d030e31	0.031995956
33	0xbc857994	-0.016293325
34	0x3ce9f44a	0.028558869
35	0x3c9e4fd9	0.019325184
36	0x3c79d5c1	0.015248717
37	0x3ca61bd6	0.020276945
38	0x3c0431e2	0.008068534
39	0xbc37d3c4	-0.011219922
40	0xbcec5531	-0.028849216
41	0x3b3c8c4d	0.002877015
42	0xbcaf94d4	-0.021433271
43	0x3d516bb9	0.051128123
44	0x3c249f88	0.010047801
45	0x3c741fb2	0.014900135
46	0xbb8bb309	-0.004263286
47	0x3c3814d5	0.0112354355
48	0x3d1e38df	0.038628455
49	0xbc277ff1	-0.010223375
50	0xbc8e2b89	-0.017354744
51	0xbce3183d	-0.027721519
52	0xbc159da2	-0.009131821
53	0x3cc0aa0d	0.023518587
54	0x3d3820dd	0.044953216
55	0x3c86f834	0.016475774
56	0x3ca300ac	0.019897781
57	0x3cd42a71	0.025899144
58	0x3cce46f6	0.025180321
59	0x3cbbade3	0.022910064
60	0x3bf1c0bc	0.007377712
61	0x3c27f080	0.010250211
62	0x3ccb55eb	0.024821242
63	0x3c63077d	0.013856766

linear_out.6.0.weight f4 [64, 64]
0	0x3d746076	0.059662305
1	0xbe419902	-0.18906024
2	0xbd915c3f	-0.07097673
3	0xbe651248	-0.22370255
4	0xbd219ff5	-0.039459188
5	0xbdacac3b	-0.08431288
6	0xbe0cd740	-0.13753986
7	0xbe0b93b0	-0.13630557
8	0x3d809b22	0.06279589
9	0xbdb148fb	-0.08656498
10	0x3e272ade	0.16324946
11	0xbd94504f	-0.0724188
12	0x3e426a16	0.18985781
13	0xbe54f057	-0.20794807
14	0x3e40065d	0.18752427
15	0xbba38520	-0.004990235
16	0xbe339af6	-0.17539582
17	0xbe18c97b	-0.14920609
18	0xbdbfb6b6	-0.09361021
19	0x3cabbc99	0.020963954
20	0x3e373761	0.17892219
21	0x3e3b5430	0.18293834
22	0xbe29d9db	-0.16587012
23	0xbe355831	-0.17709424
24	0x3e313e36	0.17308888
25	0x3e66c231	0.22535016
26	0xbdefd32b	-0.11710199
27	0xbe4645e5	-0.193626
28	0xbe0b5735	-0.13607486
29	0x3e0cdccf	0.13756107
30	0x3e378d5b	0.17925017
31	0xbe28dc36	-0.16490254
32	0x3bd2db67	0.006434846
33	0x3d3778b5	0.04479285
34	0x3d11fd67	0.035642054
35	0xbdeec1e7	-0.11658078
36	0xbe145b4f	-0.14487956
37	0x3c4b93bc	0.012425359
38	0xbdc4c488	-0.09607798
39	0xbe1d09e2	-0.15335801
40	0x3e4a463f	0.1975336
41	0xbdd35318	-0.10318583
42	0xbe5293ef	-0.20564245
43	0xbdd74f0c	-0.10513124
44	0xbdcfc3ae	-0.10144745
45	0xbe2aae2c	-0.16668004
46	0xbdcbc0be	-0.09948872
47	0x3e381e23	0.17980246
48	0x3e127242	0.14301398
49	0x3d6b8e56	0.05750879
50	0xbd35571a	-0.04427252
51	0x3e490b86	0.19633302
52	0xbc9ad258	-0.018899128
53	0xbc8b5bef	-0.01701161
54	0x3e210a10	0.15726495
55	0x3e18df27	0.14928876
56	0xbd335c6f	-0.043789323
57	0xbe3088a0	-0.17239618
58	0x3c97a5a1	0.018511595
59	0xbd1afe5a	-0.037840225
60	0x3e17738a	0.14790168
61	0xbe262e02	-0.16228488
62	0x3d0783a2	0.03308452
63	0x3dbf4365	0.09339026
64	0x3e3bd36e	0.18342373
65	0xbe49ef51	-0.19720198
66	0x3e60af4c	0.2194187
67	0x3c3a46c2	0.011369409
68	0xbe3eb6dc	-0.18624443
69	0xbccb24bc	-0.02479779
70	0x3e32d974	0.17465764
71	0x3e3b3f29	0.18285812
72	0xbbd2dde0	-0.006435141
73	0xbe5351c6	-0.20636663
74	0x3e2baa95	0.1676429
75	0xbe5b256b	-0.21400993
76	0x3db29284	0.08719352
77	0xbe34330c	-0.17597598
78	0x3e5cb6cd	0.21554108
79	0x3e2e06af	0.16994737
80	0x3daebc27	0.08531981
81	0x3d5bf482	0.053699978
82	0xbd84ee6a	-0.064907864
83	0xbe4e867b	-0.20168488
84	0x3a224590	0.0006190175
85	0x3e4b81a0	0.19873667
86	0xbd2f2f0e	-0.042769484
87	0x3e48ac94	0.19597083
88	0x3d85ea42	0.06538822
89	0x3df75be3	0.12078073
90	0x3e21f283	0.15815167
91	0x3e1bdfc8	0.15222085
92	0x3ddc31d8	0.107516944
93	0x3e47bada	0.19504872
94	0xbe0c1bbd	-0.13682456
95	0x3cf1b788	0.02950646
96	0x3c3a4fa9	0.0113715315
97	0xbc6b5b9e	-0.014365105
98	0x3e13f695	0.14449532
99	0x3e0252d8	0.12726915
100	0xbe33a503	-0.17543416
101	0x3dea2b03	0.11433985
102	0xbde1d7fb	-0.11027523
103	0xbd82a19d	-0.063784815
104	0x3c9581c0	0.018250346
105	0xbdd16d62	-0.10225941
106	0x3e1bfb67	0.15232621
107	0xbdb5d06d	-0.08877645
108	0xbc0b1cce	-0.008490754
109	0xbe1e120c	-0.15436572
110	0x3e3ee793	0.18643026
111	0x3e494b6a	0.19657674
112	0xbcb56074	-0.022140719
113	0xbe0b2259	-0.13587321
114	0xbd4fcc61	-0.05073202
115	0xbd9d5848	-0.07682854
116	0xbe1a6fd1	-0.15081717
117	0x3e3c37b3	0.18380623
118	0x3e2e6bc0	0.17033291
119	0xbe353b3a	-0.17698374
120	0xbd196e97	-0.037458982
121	0xbd1abc49	-0.03777722
122	0xbd2fbc29	-0.042904053
123	0xbe213ebc	-0.15746588
124	0x3e19f7ad	0.15035887
125	0xbe4cac9b	-0.19987719
126	0x3d5d8249	0.054079328
127	0xbe627bb5	-0.22117503
128	0x3ddeb41b	0.10874196
129	0x3da2dcf4	0.079523
130	0xbd6ab097	-0.057297315
131	0x3dae7db4	0.0852007
132	0xbbfd15c2	-0.007723541
133	0xbd60aa2a	-0.05484978
134	0xbe3697c6	-0.17831334
135	0x3e0ec688	0.13942921
136	0xbcb2ecab	-0.021841368
137	0xbcc66041	-0.02421582
138	0x3d42c8d1	0.047554795
139	0xbe14e4e0	-0.14540434
140	0xbe419ed4	-0.18908244
141	0xbdc9feba	-0.09863038
142	0x3e420481	0.1894703
143	0x3e0a3721	0.13497593
144	0xbc96802c	-0.018371664
145	0xbdb00c17	-0.08596056
146	0x3e175061	0.14776756
147	0xbd763a19	-0.060114
148	0x3d9352f4	0.071935564
149	0x3cda1ef7	0.026626093
150	0xbe2d045c	-0.16896194
151	0xbe5ff4b0	-0.21870685
152	0xbdadc2a8	-0.08484393
153	0xbe45d410	-0.19319177
154	0x3d236635	0.039892394
155	0xbd5edf54	-0.0544122
156	0xbce9f2a4	-0.028558083
157	0x3e2e9e67	0.17052613
158	0x3c7d106f	0.015445813
159	0xbdbf3670	-0.09336555
160	0xbe08394c	-0.13303107
161	0xbe161926	-0.14658031
162	0x3e251cd3	0.16124277
163	0xbce76687	-0.028247131
164	0x3db1bd33	0.08678665
165	0xbd5f57b8	-0.054527014
166	0xbe1427d5	-0.1446832
167	0x3d60b818	0.054863065
168	0x3d151361	0.036395434
169	0x3decd041	0.11563159
170	0xbc42e39f	-0.011895089
171	0xbc8fd58f	-0.017557887
172	0x3e3502ec	0.17676896
173	0x3c634d1b	0.013873364
174	0x3dc0a8e4	0.09407213
175	0x3e0a430f	0.13502143
176	0x3e2aa77a	0.1666545
177	0x3e440ce5	0.19145544
178	0x3e3aeed3	0.18255167
179	0xbd1960b8	-0.037445754
180	0x3c2c7bd9	0.010527574
181	0x3d02c66d	0.031927515
182	0xbe073199	-0.13202514
183	0x3e3f8d20	0.18706179
184	0x3e4ecf66	0.20196304
185	0xbe5b18af	-0.21396135
186	0x3dbd8ec9	0.0925575
187	0x3e141703	0.14461903
188	0x3d90d31f	0.07071518
189	0xbdfcacbd	-0.12337635
190	0x3d6681a4	0.05627598
191	0x3c024471	0.007950888
192	0x3e021aee	0.12705585
193	0x3e363c35	0.17796405
194	0x3cd4cfb5	0.025977949
195	0x3e1a1aea	0.1504933
196	0xbe4e54b7	-0.20149504
197	0xbe27179a	-0.16317597
198	0x3e027270	0.12738967
199	0x3e3afaba	0.18259707
200	0xbd9315a7	-0.07181864
201	0xbe09aef4	-0.13445646
202	0x3e4d846c	0.20070046
203	0x3e12e5c7	0.14345466
204	0xbd8ebb56	-0.06969325
205	0xbe056d2f	-0.13029931
206	0x3e0e9b6c	0.13926476
207	0xbe75d9b7	-0.24008833
208	0x3e286e2f	0.16448282
209	0x3c4903d7	0.012268982
210	0xbe4ca935	-0.19986422
211	0x3c156e1a	0.009120489
212	0xbabe91a4	-0.0014539254
213	0xbe042220	-0.12903643
214	0xbe371a35	-0.17881091
215	0xbdba08c6	-0.09083705
216	0xbe194010	-0.14965844
217	0x3d62e986	0.055398487
218	0x3d17a04a	0.037018098
219	0xbe75f7ce	-0.24020311
220	0xbd874b1f	-0.06606125
221	0x3e396d73	0.18108158
222	0x3daf5c57	0.08562534
223	0x3d060ef9	0.032729123
224	0xbe338565	-0.17531355
225	0x3cd5febd	0.026122445
226	0xbe3a0158	-0.18164575
227	0xbe254689	-0.16140188
228	0xbda911d0	-0.082553506
229	0x3df87de4	0.12133387
230	0xbc736789	-0.014856228
231	0xbe5c4d8c	-0.21513957
232	0xbdf4b70f	-0.11948978
233	0xbe1cd32b	-0.15314929
234	0x3e045782	0.12924007
235	0x3b663133	0.003512454
236	0x3e4e341a	0.20137063
237	0xbe613398	-0.21992338
238	0x3e3daef4	0.1852377
239	0xbd6a2828	-0.057167202
240	0xbc695040	-0.0142403245
241	0x3bfc177d	0.0076932297
242	0x3e462894	0.19351417
243	0xbe184846	-0.1487132
244	0xbe3fd74b	-0.18734471
245	0xbe2a9ebe	-0.16662118
246	0x3e33d43f	0.17561434
247	0x3c950a04	0.018193252
248	0xbe5556ce	-0.20833895
249	0xbd9692d9	-0.07352228
250	0x3e0be6ac	0.13662213
251	0xbdbbc8da	-0.09169169
252	0xbe39fdd8	-0.1816324
253	0xbe6323a6	-0.22181568
254	0xbda47baf	-0.08031403
255	0x3e2ddb4b	0.16978185

linear_out.6.0.bias f4 [64]
0	0x3c23c153	0.009994823
1	0x3b2bc4cc	0.002620983
2	0x3c322cf0	0.010874972
3	0x3cb1b8bd	0.021694535
4	0x3b538d5e	0.0032280306
5	0x3bf5c842	0.007500679
6	0x3ba897e1	0.0051450585
7	0x3c8b85f6	0.017031651
8	0x3c3c4419	0.011490845
9	0x3d17af6e	0.037032537
10	0x3c220383	0.009888533
11	0xbc07f0a4	-0.008297119
12	0xba9bdf22	-0.001189206
13	0x3d359452	0.044330902
14	0xbc6e382d	-0.014539761
15	0x3c68f556	0.014218649
16	0x3c468a3e	0.01211792
17	0x3c4b559a	0.012410546
18	0x3c083b6d	0.008314949
19	0x3c42dc12	0.011893289
20	0xbc458cc1	-0.012057484
21	0x3c6adcc7	0.014334864
22	0x3b8b7cbd	0.0042568133
23	0xbc0ff712	-0.0087869335
24	0xbb84468d	-0.0040367306
25	0x3c97266f	0.018450944
26	0x3c0b56b4	0.008504558
27	0x3c502c46	0.012705868
28	0x3bd8e51c	0.006619109
29	0x3c8bd794	0.01707057
30	0x3ce546d6	0.027987879
31	0x3c70818c	0.014679324
32	0x3bd640ed	0.0065385015
33	0x3d09d382	0.033648975
34	0x3ce0a242	0.02742112
35	0x3bb58aff	0.0055402513
36	0x3a496f14	0.00076840934
37	0x3bfa80ce	0.0076447492
38	0x3d0b4d11	0.034009043
39	0x3b259f83	0.0025272078
40	0x3d2d8c3a	0.04237006
41	0x3cc9e5c2	0.02464569
42	0x3a8674af	0.0010258163
43	0xbc046000	-0.008079529
44	0x3d1326e3	0.035925757
45	0x3c9389a7	0.018009974
46	0x3c14c035	0.009079029
47	0x3c10e793	0.008844274
48	0x3ca65bda	0.02030747
49	0x3b837d89	0.0040127677
50	0x3c5016fc	0.012700792
51	0xbc872cd2	-0.016500864
52	0x3d15bf1d	0.036559213
53	0xbca1bc12	-0.019743
54	0xbcba0e4e	-0.0227119
55	0x3d1c36a8	0.03813806
56	0x3cde1710	0.027110606
57	0x3c078b4b	0.008272956
58	0xbc141532	-0.0090382565
59	0xbb1df8d0	-0.0024104603
60	0x3c236878	0.009973638
61	0x3c107729	0.0088174725
62	0x3c66f3f0	0.014096245
63	0x3cad2db0	0.02113995

linear_out.6.2.weight f4 [1, 64]
0	0xbcc601b3	-0.024170732
1	0x3bc17508	0.005903844
2	0x3d97f3ba	0.07419534
3	0x3e96e369	0.29470375
4	0xbe0bdc89	-0.13658346
5	0x3de66000	0.11248779
6	0x3eab1bbe	0.33419603
7	0xbecbf1ee	-0.39833015
8	0xbd6b6306	-0.057467483
9	0xbeb6c699	-0.35698393
10	0xbea18a17	-0.31550667
11	0x3e97e2da	0.29665262
12	0x3da3f879	0.08006377
13	0xbec323a6	-0.38113135
14	0x3e78352f	0.24239038
15	0xbeb0aaca	-0.34505302
16	0xbd5b21ea	-0.05349914
17	0xbe082d1b	-0.13298456
18	0xbd0ea15c	-0.034821853
19	0x3e79b560	0.24385595
20	0xbe8f6255	-0.2800471
21	0x3e018e08	0.12651837
22	0x3e17c80c	0.14822406
23	0x3e3dbbfd	0.18528743
24	0x3edd0a01	0.43171695
25	0xbedc523c	-0.4303149
26	0xbd71fbeb	-0.05907814
27	0xbd142005	-0.03616335
28	0xbe7bb516	-0.24580798
29	0x3e635509	0.22200407
30	0x3eb2969e	0.34880537
31	0xbdad5318	-0.084631145
32	0xbe805f60	-0.25072765
33	0xbeb7c7f8	-0.35894752
34	0xbeb2f559	-0.3495281
35	0x3e17b95f	0.14816807
36	0xbf3c044f	-0.73444074
37	0xbd858724	-0.06519917
38	0xbe1e01f6	-0.15430436
39	0xbeee766e	-0.4657473
40	0xbe624f4e	-0.22100565
41	0xbeb1289f	-0.34601304
42	0x3e84c5b8	0.25932097
43	0x3e44b9a0	0.19211435
44	0xbee9c90a	-0.45661193
45	0xbeb91b37	-0.36153576
46	0x3d1d214d	0.038361836
47	0xbc2c4949	-0.010515519
48	0x3dda3689	0.10654933
49	0x3e6028aa	0.21890512
50	0xbeb3c4d7	-0.35111114
51	0x3da7bb45	0.08190016
52	0x3e2e7a5d	0.17038865
53	0x3e8cc3ca	0.27493125
54	0x3eb9ad62	0.36265093
55	0x3ec402b0	0.382833
56	0x3e1d582b	0.15365665
57	0x3d79d5bf	0.06099486
58	0x3e0e5397	0.13899074
59	0x3dfb4537	0.12269061
60	0x3d9dd85b	0.07707282
61	0xbe1f39c2	-0.15549377
62	0xbe12d33e	-0.14338395
63	0xbef719ec	-0.48261964
